{"class_name": "Functional", "config": {"name": "model", "layers": [{"class_name": "InputLayer", "config": {"batch_input_shape": [null, 252], "dtype": "float32", "sparse": false, "ragged": false, "name": "input_layer"}, "name": "input_layer", "inbound_nodes": []}, {"class_name": "SlicingOpLambda", "config": {"name": "tf.__operators__.getitem", "trainable": true, "dtype": "float32", "function": "__operators__.getitem"}, "name": "tf.__operators__.getitem", "inbound_nodes": [["input_layer", 0, 0, {"slice_spec": [{"start": null, "stop": null, "step": null}, {"start": 0, "stop": 4, "step": null}]}]]}, {"class_name": "SlicingOpLambda", "config": {"name": "tf.__operators__.getitem_1", "trainable": true, "dtype": "float32", "function": "__operators__.getitem"}, "name": "tf.__operators__.getitem_1", "inbound_nodes": [["input_layer", 0, 0, {"slice_spec": [{"start": null, "stop": null, "step": null}, {"start": 4, "stop": 8, "step": null}]}]]}, {"class_name": "SlicingOpLambda", "config": {"name": "tf.__operators__.getitem_2", "trainable": true, "dtype": "float32", "function": "__operators__.getitem"}, "name": "tf.__operators__.getitem_2", "inbound_nodes": [["input_layer", 0, 0, {"slice_spec": [{"start": null, "stop": null, "step": null}, {"start": 8, "stop": 12, "step": null}]}]]}, {"class_name": "SlicingOpLambda", "config": {"name": "tf.__operators__.getitem_3", "trainable": true, "dtype": "float32", "function": "__operators__.getitem"}, "name": "tf.__operators__.getitem_3", "inbound_nodes": [["input_layer", 0, 0, {"slice_spec": [{"start": null, "stop": null, "step": null}, {"start": 12, "stop": 16, "step": null}]}]]}, {"class_name": "SlicingOpLambda", "config": {"name": "tf.__operators__.getitem_4", "trainable": true, "dtype": "float32", "function": "__operators__.getitem"}, "name": "tf.__operators__.getitem_4", "inbound_nodes": [["input_layer", 0, 0, {"slice_spec": [{"start": null, "stop": null, "step": null}, {"start": 16, "stop": 20, "step": null}]}]]}, {"class_name": "SlicingOpLambda", "config": {"name": "tf.__operators__.getitem_5", "trainable": true, "dtype": "float32", "function": "__operators__.getitem"}, "name": "tf.__operators__.getitem_5", "inbound_nodes": [["input_layer", 0, 0, {"slice_spec": [{"start": null, "stop": null, "step": null}, {"start": 20, "stop": 24, "step": null}]}]]}, {"class_name": "SlicingOpLambda", "config": {"name": "tf.__operators__.getitem_6", "trainable": true, "dtype": "float32", "function": "__operators__.getitem"}, "name": "tf.__operators__.getitem_6", "inbound_nodes": [["input_layer", 0, 0, {"slice_spec": [{"start": null, "stop": null, "step": null}, {"start": 24, "stop": 28, "step": null}]}]]}, {"class_name": "SlicingOpLambda", "config": {"name": "tf.__operators__.getitem_7", "trainable": true, "dtype": "float32", "function": "__operators__.getitem"}, "name": "tf.__operators__.getitem_7", "inbound_nodes": [["input_layer", 0, 0, {"slice_spec": [{"start": null, "stop": null, "step": null}, {"start": 28, "stop": 32, "step": null}]}]]}, {"class_name": "SlicingOpLambda", "config": {"name": "tf.__operators__.getitem_8", "trainable": true, "dtype": "float32", "function": "__operators__.getitem"}, "name": "tf.__operators__.getitem_8", "inbound_nodes": [["input_layer", 0, 0, {"slice_spec": [{"start": null, "stop": null, "step": null}, {"start": 32, "stop": 36, "step": null}]}]]}, {"class_name": "SlicingOpLambda", "config": {"name": "tf.__operators__.getitem_9", "trainable": true, "dtype": "float32", "function": "__operators__.getitem"}, "name": "tf.__operators__.getitem_9", "inbound_nodes": [["input_layer", 0, 0, {"slice_spec": [{"start": null, "stop": null, "step": null}, {"start": 36, "stop": 40, "step": null}]}]]}, {"class_name": "SlicingOpLambda", "config": {"name": "tf.__operators__.getitem_10", "trainable": true, "dtype": "float32", "function": "__operators__.getitem"}, "name": "tf.__operators__.getitem_10", "inbound_nodes": [["input_layer", 0, 0, {"slice_spec": [{"start": null, "stop": null, "step": null}, {"start": 40, "stop": 44, "step": null}]}]]}, {"class_name": "SlicingOpLambda", "config": {"name": "tf.__operators__.getitem_11", "trainable": true, "dtype": "float32", "function": "__operators__.getitem"}, "name": "tf.__operators__.getitem_11", "inbound_nodes": [["input_layer", 0, 0, {"slice_spec": [{"start": null, "stop": null, "step": null}, {"start": 44, "stop": 48, "step": null}]}]]}, {"class_name": "SlicingOpLambda", "config": {"name": "tf.__operators__.getitem_12", "trainable": true, "dtype": "float32", "function": "__operators__.getitem"}, "name": "tf.__operators__.getitem_12", "inbound_nodes": [["input_layer", 0, 0, {"slice_spec": [{"start": null, "stop": null, "step": null}, {"start": 48, "stop": 52, "step": null}]}]]}, {"class_name": "SlicingOpLambda", "config": {"name": "tf.__operators__.getitem_13", "trainable": true, "dtype": "float32", "function": "__operators__.getitem"}, "name": "tf.__operators__.getitem_13", "inbound_nodes": [["input_layer", 0, 0, {"slice_spec": [{"start": null, "stop": null, "step": null}, {"start": 52, "stop": 56, "step": null}]}]]}, {"class_name": "SlicingOpLambda", "config": {"name": "tf.__operators__.getitem_14", "trainable": true, "dtype": "float32", "function": "__operators__.getitem"}, "name": "tf.__operators__.getitem_14", "inbound_nodes": [["input_layer", 0, 0, {"slice_spec": [{"start": null, "stop": null, "step": null}, {"start": 56, "stop": 60, "step": null}]}]]}, {"class_name": "SlicingOpLambda", "config": {"name": "tf.__operators__.getitem_15", "trainable": true, "dtype": "float32", "function": "__operators__.getitem"}, "name": "tf.__operators__.getitem_15", "inbound_nodes": [["input_layer", 0, 0, {"slice_spec": [{"start": null, "stop": null, "step": null}, {"start": 60, "stop": 64, "step": null}]}]]}, {"class_name": "SlicingOpLambda", "config": {"name": "tf.__operators__.getitem_16", "trainable": true, "dtype": "float32", "function": "__operators__.getitem"}, "name": "tf.__operators__.getitem_16", "inbound_nodes": [["input_layer", 0, 0, {"slice_spec": [{"start": null, "stop": null, "step": null}, {"start": 64, "stop": 68, "step": null}]}]]}, {"class_name": "SlicingOpLambda", "config": {"name": "tf.__operators__.getitem_17", "trainable": true, "dtype": "float32", "function": "__operators__.getitem"}, "name": "tf.__operators__.getitem_17", "inbound_nodes": [["input_layer", 0, 0, {"slice_spec": [{"start": null, "stop": null, "step": null}, {"start": 68, "stop": 72, "step": null}]}]]}, {"class_name": "SlicingOpLambda", "config": {"name": "tf.__operators__.getitem_18", "trainable": true, "dtype": "float32", "function": "__operators__.getitem"}, "name": "tf.__operators__.getitem_18", "inbound_nodes": [["input_layer", 0, 0, {"slice_spec": [{"start": null, "stop": null, "step": null}, {"start": 72, "stop": 76, "step": null}]}]]}, {"class_name": "SlicingOpLambda", "config": {"name": "tf.__operators__.getitem_19", "trainable": true, "dtype": "float32", "function": "__operators__.getitem"}, "name": "tf.__operators__.getitem_19", "inbound_nodes": [["input_layer", 0, 0, {"slice_spec": [{"start": null, "stop": null, "step": null}, {"start": 76, "stop": 80, "step": null}]}]]}, {"class_name": "SlicingOpLambda", "config": {"name": "tf.__operators__.getitem_20", "trainable": true, "dtype": "float32", "function": "__operators__.getitem"}, "name": "tf.__operators__.getitem_20", "inbound_nodes": [["input_layer", 0, 0, {"slice_spec": [{"start": null, "stop": null, "step": null}, {"start": 80, "stop": 84, "step": null}]}]]}, {"class_name": "SlicingOpLambda", "config": {"name": "tf.__operators__.getitem_21", "trainable": true, "dtype": "float32", "function": "__operators__.getitem"}, "name": "tf.__operators__.getitem_21", "inbound_nodes": [["input_layer", 0, 0, {"slice_spec": [{"start": null, "stop": null, "step": null}, {"start": 84, "stop": 88, "step": null}]}]]}, {"class_name": "SlicingOpLambda", "config": {"name": "tf.__operators__.getitem_22", "trainable": true, "dtype": "float32", "function": "__operators__.getitem"}, "name": "tf.__operators__.getitem_22", "inbound_nodes": [["input_layer", 0, 0, {"slice_spec": [{"start": null, "stop": null, "step": null}, {"start": 88, "stop": 92, "step": null}]}]]}, {"class_name": "SlicingOpLambda", "config": {"name": "tf.__operators__.getitem_23", "trainable": true, "dtype": "float32", "function": "__operators__.getitem"}, "name": "tf.__operators__.getitem_23", "inbound_nodes": [["input_layer", 0, 0, {"slice_spec": [{"start": null, "stop": null, "step": null}, {"start": 92, "stop": 96, "step": null}]}]]}, {"class_name": "SlicingOpLambda", "config": {"name": "tf.__operators__.getitem_24", "trainable": true, "dtype": "float32", "function": "__operators__.getitem"}, "name": "tf.__operators__.getitem_24", "inbound_nodes": [["input_layer", 0, 0, {"slice_spec": [{"start": null, "stop": null, "step": null}, {"start": 96, "stop": 100, "step": null}]}]]}, {"class_name": "SlicingOpLambda", "config": {"name": "tf.__operators__.getitem_25", "trainable": true, "dtype": "float32", "function": "__operators__.getitem"}, "name": "tf.__operators__.getitem_25", "inbound_nodes": [["input_layer", 0, 0, {"slice_spec": [{"start": null, "stop": null, "step": null}, {"start": 100, "stop": 104, "step": null}]}]]}, {"class_name": "SlicingOpLambda", "config": {"name": "tf.__operators__.getitem_26", "trainable": true, "dtype": "float32", "function": "__operators__.getitem"}, "name": "tf.__operators__.getitem_26", "inbound_nodes": [["input_layer", 0, 0, {"slice_spec": [{"start": null, "stop": null, "step": null}, {"start": 104, "stop": 108, "step": null}]}]]}, {"class_name": "SlicingOpLambda", "config": {"name": "tf.__operators__.getitem_27", "trainable": true, "dtype": "float32", "function": "__operators__.getitem"}, "name": "tf.__operators__.getitem_27", "inbound_nodes": [["input_layer", 0, 0, {"slice_spec": [{"start": null, "stop": null, "step": null}, {"start": 108, "stop": 112, "step": null}]}]]}, {"class_name": "SlicingOpLambda", "config": {"name": "tf.__operators__.getitem_28", "trainable": true, "dtype": "float32", "function": "__operators__.getitem"}, "name": "tf.__operators__.getitem_28", "inbound_nodes": [["input_layer", 0, 0, {"slice_spec": [{"start": null, "stop": null, "step": null}, {"start": 112, "stop": 116, "step": null}]}]]}, {"class_name": "SlicingOpLambda", "config": {"name": "tf.__operators__.getitem_29", "trainable": true, "dtype": "float32", "function": "__operators__.getitem"}, "name": "tf.__operators__.getitem_29", "inbound_nodes": [["input_layer", 0, 0, {"slice_spec": [{"start": null, "stop": null, "step": null}, {"start": 116, "stop": 120, "step": null}]}]]}, {"class_name": "SlicingOpLambda", "config": {"name": "tf.__operators__.getitem_30", "trainable": true, "dtype": "float32", "function": "__operators__.getitem"}, "name": "tf.__operators__.getitem_30", "inbound_nodes": [["input_layer", 0, 0, {"slice_spec": [{"start": null, "stop": null, "step": null}, {"start": 120, "stop": 124, "step": null}]}]]}, {"class_name": "SlicingOpLambda", "config": {"name": "tf.__operators__.getitem_31", "trainable": true, "dtype": "float32", "function": "__operators__.getitem"}, "name": "tf.__operators__.getitem_31", "inbound_nodes": [["input_layer", 0, 0, {"slice_spec": [{"start": null, "stop": null, "step": null}, {"start": 124, "stop": 128, "step": null}]}]]}, {"class_name": "SlicingOpLambda", "config": {"name": "tf.__operators__.getitem_32", "trainable": true, "dtype": "float32", "function": "__operators__.getitem"}, "name": "tf.__operators__.getitem_32", "inbound_nodes": [["input_layer", 0, 0, {"slice_spec": [{"start": null, "stop": null, "step": null}, {"start": 128, "stop": 132, "step": null}]}]]}, {"class_name": "SlicingOpLambda", "config": {"name": "tf.__operators__.getitem_33", "trainable": true, "dtype": "float32", "function": "__operators__.getitem"}, "name": "tf.__operators__.getitem_33", "inbound_nodes": [["input_layer", 0, 0, {"slice_spec": [{"start": null, "stop": null, "step": null}, {"start": 132, "stop": 136, "step": null}]}]]}, {"class_name": "SlicingOpLambda", "config": {"name": "tf.__operators__.getitem_34", "trainable": true, "dtype": "float32", "function": "__operators__.getitem"}, "name": "tf.__operators__.getitem_34", "inbound_nodes": [["input_layer", 0, 0, {"slice_spec": [{"start": null, "stop": null, "step": null}, {"start": 136, "stop": 140, "step": null}]}]]}, {"class_name": "SlicingOpLambda", "config": {"name": "tf.__operators__.getitem_35", "trainable": true, "dtype": "float32", "function": "__operators__.getitem"}, "name": "tf.__operators__.getitem_35", "inbound_nodes": [["input_layer", 0, 0, {"slice_spec": [{"start": null, "stop": null, "step": null}, {"start": 140, "stop": 144, "step": null}]}]]}, {"class_name": "SlicingOpLambda", "config": {"name": "tf.__operators__.getitem_36", "trainable": true, "dtype": "float32", "function": "__operators__.getitem"}, "name": "tf.__operators__.getitem_36", "inbound_nodes": [["input_layer", 0, 0, {"slice_spec": [{"start": null, "stop": null, "step": null}, {"start": 144, "stop": 148, "step": null}]}]]}, {"class_name": "SlicingOpLambda", "config": {"name": "tf.__operators__.getitem_37", "trainable": true, "dtype": "float32", "function": "__operators__.getitem"}, "name": "tf.__operators__.getitem_37", "inbound_nodes": [["input_layer", 0, 0, {"slice_spec": [{"start": null, "stop": null, "step": null}, {"start": 148, "stop": 152, "step": null}]}]]}, {"class_name": "SlicingOpLambda", "config": {"name": "tf.__operators__.getitem_38", "trainable": true, "dtype": "float32", "function": "__operators__.getitem"}, "name": "tf.__operators__.getitem_38", "inbound_nodes": [["input_layer", 0, 0, {"slice_spec": [{"start": null, "stop": null, "step": null}, {"start": 152, "stop": 156, "step": null}]}]]}, {"class_name": "SlicingOpLambda", "config": {"name": "tf.__operators__.getitem_39", "trainable": true, "dtype": "float32", "function": "__operators__.getitem"}, "name": "tf.__operators__.getitem_39", "inbound_nodes": [["input_layer", 0, 0, {"slice_spec": [{"start": null, "stop": null, "step": null}, {"start": 156, "stop": 160, "step": null}]}]]}, {"class_name": "SlicingOpLambda", "config": {"name": "tf.__operators__.getitem_40", "trainable": true, "dtype": "float32", "function": "__operators__.getitem"}, "name": "tf.__operators__.getitem_40", "inbound_nodes": [["input_layer", 0, 0, {"slice_spec": [{"start": null, "stop": null, "step": null}, {"start": 160, "stop": 164, "step": null}]}]]}, {"class_name": "SlicingOpLambda", "config": {"name": "tf.__operators__.getitem_41", "trainable": true, "dtype": "float32", "function": "__operators__.getitem"}, "name": "tf.__operators__.getitem_41", "inbound_nodes": [["input_layer", 0, 0, {"slice_spec": [{"start": null, "stop": null, "step": null}, {"start": 164, "stop": 168, "step": null}]}]]}, {"class_name": "SlicingOpLambda", "config": {"name": "tf.__operators__.getitem_42", "trainable": true, "dtype": "float32", "function": "__operators__.getitem"}, "name": "tf.__operators__.getitem_42", "inbound_nodes": [["input_layer", 0, 0, {"slice_spec": [{"start": null, "stop": null, "step": null}, {"start": 168, "stop": 172, "step": null}]}]]}, {"class_name": "SlicingOpLambda", "config": {"name": "tf.__operators__.getitem_43", "trainable": true, "dtype": "float32", "function": "__operators__.getitem"}, "name": "tf.__operators__.getitem_43", "inbound_nodes": [["input_layer", 0, 0, {"slice_spec": [{"start": null, "stop": null, "step": null}, {"start": 172, "stop": 176, "step": null}]}]]}, {"class_name": "SlicingOpLambda", "config": {"name": "tf.__operators__.getitem_44", "trainable": true, "dtype": "float32", "function": "__operators__.getitem"}, "name": "tf.__operators__.getitem_44", "inbound_nodes": [["input_layer", 0, 0, {"slice_spec": [{"start": null, "stop": null, "step": null}, {"start": 176, "stop": 180, "step": null}]}]]}, {"class_name": "SlicingOpLambda", "config": {"name": "tf.__operators__.getitem_45", "trainable": true, "dtype": "float32", "function": "__operators__.getitem"}, "name": "tf.__operators__.getitem_45", "inbound_nodes": [["input_layer", 0, 0, {"slice_spec": [{"start": null, "stop": null, "step": null}, {"start": 180, "stop": 184, "step": null}]}]]}, {"class_name": "SlicingOpLambda", "config": {"name": "tf.__operators__.getitem_46", "trainable": true, "dtype": "float32", "function": "__operators__.getitem"}, "name": "tf.__operators__.getitem_46", "inbound_nodes": [["input_layer", 0, 0, {"slice_spec": [{"start": null, "stop": null, "step": null}, {"start": 184, "stop": 188, "step": null}]}]]}, {"class_name": "SlicingOpLambda", "config": {"name": "tf.__operators__.getitem_47", "trainable": true, "dtype": "float32", "function": "__operators__.getitem"}, "name": "tf.__operators__.getitem_47", "inbound_nodes": [["input_layer", 0, 0, {"slice_spec": [{"start": null, "stop": null, "step": null}, {"start": 188, "stop": 192, "step": null}]}]]}, {"class_name": "SlicingOpLambda", "config": {"name": "tf.__operators__.getitem_48", "trainable": true, "dtype": "float32", "function": "__operators__.getitem"}, "name": "tf.__operators__.getitem_48", "inbound_nodes": [["input_layer", 0, 0, {"slice_spec": [{"start": null, "stop": null, "step": null}, {"start": 192, "stop": 196, "step": null}]}]]}, {"class_name": "SlicingOpLambda", "config": {"name": "tf.__operators__.getitem_49", "trainable": true, "dtype": "float32", "function": "__operators__.getitem"}, "name": "tf.__operators__.getitem_49", "inbound_nodes": [["input_layer", 0, 0, {"slice_spec": [{"start": null, "stop": null, "step": null}, {"start": 196, "stop": 200, "step": null}]}]]}, {"class_name": "SlicingOpLambda", "config": {"name": "tf.__operators__.getitem_50", "trainable": true, "dtype": "float32", "function": "__operators__.getitem"}, "name": "tf.__operators__.getitem_50", "inbound_nodes": [["input_layer", 0, 0, {"slice_spec": [{"start": null, "stop": null, "step": null}, {"start": 200, "stop": 204, "step": null}]}]]}, {"class_name": "SlicingOpLambda", "config": {"name": "tf.__operators__.getitem_51", "trainable": true, "dtype": "float32", "function": "__operators__.getitem"}, "name": "tf.__operators__.getitem_51", "inbound_nodes": [["input_layer", 0, 0, {"slice_spec": [{"start": null, "stop": null, "step": null}, {"start": 204, "stop": 208, "step": null}]}]]}, {"class_name": "SlicingOpLambda", "config": {"name": "tf.__operators__.getitem_52", "trainable": true, "dtype": "float32", "function": "__operators__.getitem"}, "name": "tf.__operators__.getitem_52", "inbound_nodes": [["input_layer", 0, 0, {"slice_spec": [{"start": null, "stop": null, "step": null}, {"start": 208, "stop": 212, "step": null}]}]]}, {"class_name": "SlicingOpLambda", "config": {"name": "tf.__operators__.getitem_53", "trainable": true, "dtype": "float32", "function": "__operators__.getitem"}, "name": "tf.__operators__.getitem_53", "inbound_nodes": [["input_layer", 0, 0, {"slice_spec": [{"start": null, "stop": null, "step": null}, {"start": 212, "stop": 216, "step": null}]}]]}, {"class_name": "SlicingOpLambda", "config": {"name": "tf.__operators__.getitem_54", "trainable": true, "dtype": "float32", "function": "__operators__.getitem"}, "name": "tf.__operators__.getitem_54", "inbound_nodes": [["input_layer", 0, 0, {"slice_spec": [{"start": null, "stop": null, "step": null}, {"start": 216, "stop": 220, "step": null}]}]]}, {"class_name": "SlicingOpLambda", "config": {"name": "tf.__operators__.getitem_55", "trainable": true, "dtype": "float32", "function": "__operators__.getitem"}, "name": "tf.__operators__.getitem_55", "inbound_nodes": [["input_layer", 0, 0, {"slice_spec": [{"start": null, "stop": null, "step": null}, {"start": 220, "stop": 224, "step": null}]}]]}, {"class_name": "SlicingOpLambda", "config": {"name": "tf.__operators__.getitem_56", "trainable": true, "dtype": "float32", "function": "__operators__.getitem"}, "name": "tf.__operators__.getitem_56", "inbound_nodes": [["input_layer", 0, 0, {"slice_spec": [{"start": null, "stop": null, "step": null}, {"start": 224, "stop": 228, "step": null}]}]]}, {"class_name": "SlicingOpLambda", "config": {"name": "tf.__operators__.getitem_57", "trainable": true, "dtype": "float32", "function": "__operators__.getitem"}, "name": "tf.__operators__.getitem_57", "inbound_nodes": [["input_layer", 0, 0, {"slice_spec": [{"start": null, "stop": null, "step": null}, {"start": 228, "stop": 232, "step": null}]}]]}, {"class_name": "SlicingOpLambda", "config": {"name": "tf.__operators__.getitem_58", "trainable": true, "dtype": "float32", "function": "__operators__.getitem"}, "name": "tf.__operators__.getitem_58", "inbound_nodes": [["input_layer", 0, 0, {"slice_spec": [{"start": null, "stop": null, "step": null}, {"start": 232, "stop": 236, "step": null}]}]]}, {"class_name": "SlicingOpLambda", "config": {"name": "tf.__operators__.getitem_59", "trainable": true, "dtype": "float32", "function": "__operators__.getitem"}, "name": "tf.__operators__.getitem_59", "inbound_nodes": [["input_layer", 0, 0, {"slice_spec": [{"start": null, "stop": null, "step": null}, {"start": 236, "stop": 240, "step": null}]}]]}, {"class_name": "SlicingOpLambda", "config": {"name": "tf.__operators__.getitem_60", "trainable": true, "dtype": "float32", "function": "__operators__.getitem"}, "name": "tf.__operators__.getitem_60", "inbound_nodes": [["input_layer", 0, 0, {"slice_spec": [{"start": null, "stop": null, "step": null}, {"start": 240, "stop": 244, "step": null}]}]]}, {"class_name": "SlicingOpLambda", "config": {"name": "tf.__operators__.getitem_61", "trainable": true, "dtype": "float32", "function": "__operators__.getitem"}, "name": "tf.__operators__.getitem_61", "inbound_nodes": [["input_layer", 0, 0, {"slice_spec": [{"start": null, "stop": null, "step": null}, {"start": 244, "stop": 248, "step": null}]}]]}, {"class_name": "SlicingOpLambda", "config": {"name": "tf.__operators__.getitem_62", "trainable": true, "dtype": "float32", "function": "__operators__.getitem"}, "name": "tf.__operators__.getitem_62", "inbound_nodes": [["input_layer", 0, 0, {"slice_spec": [{"start": null, "stop": null, "step": null}, {"start": 248, "stop": 252, "step": null}]}]]}, {"class_name": "SlicingOpLambda", "config": {"name": "tf.__operators__.getitem_63", "trainable": true, "dtype": "float32", "function": "__operators__.getitem"}, "name": "tf.__operators__.getitem_63", "inbound_nodes": [["input_layer", 0, 0, {"slice_spec": [{"start": null, "stop": null, "step": null}, {"start": -4, "stop": null, "step": null}]}]]}, {"class_name": "Dense", "config": {"name": "dense", "trainable": true, "dtype": "float32", "units": 1, "activation": "relu", "use_bias": true, "kernel_initializer": {"class_name": "GlorotUniform", "config": {"seed": null}}, "bias_initializer": {"class_name": "Zeros", "config": {}}, "kernel_regularizer": null, "bias_regularizer": null, "activity_regularizer": null, "kernel_constraint": null, "bias_constraint": null}, "name": "dense", "inbound_nodes": [[["tf.__operators__.getitem", 0, 0, {}]]]}, {"class_name": "Dense", "config": {"name": "dense_1", "trainable": true, "dtype": "float32", "units": 1, "activation": "relu", "use_bias": true, "kernel_initializer": {"class_name": "GlorotUniform", "config": {"seed": null}}, "bias_initializer": {"class_name": "Zeros", "config": {}}, "kernel_regularizer": null, "bias_regularizer": null, "activity_regularizer": null, "kernel_constraint": null, "bias_constraint": null}, "name": "dense_1", "inbound_nodes": [[["tf.__operators__.getitem_1", 0, 0, {}]]]}, {"class_name": "Dense", "config": {"name": "dense_2", "trainable": true, "dtype": "float32", "units": 1, "activation": "relu", "use_bias": true, "kernel_initializer": {"class_name": "GlorotUniform", "config": {"seed": null}}, "bias_initializer": {"class_name": "Zeros", "config": {}}, "kernel_regularizer": null, "bias_regularizer": null, "activity_regularizer": null, "kernel_constraint": null, "bias_constraint": null}, "name": "dense_2", "inbound_nodes": [[["tf.__operators__.getitem_2", 0, 0, {}]]]}, {"class_name": "Dense", "config": {"name": "dense_3", "trainable": true, "dtype": "float32", "units": 1, "activation": "relu", "use_bias": true, "kernel_initializer": {"class_name": "GlorotUniform", "config": {"seed": null}}, "bias_initializer": {"class_name": "Zeros", "config": {}}, "kernel_regularizer": null, "bias_regularizer": null, "activity_regularizer": null, "kernel_constraint": null, "bias_constraint": null}, "name": "dense_3", "inbound_nodes": [[["tf.__operators__.getitem_3", 0, 0, {}]]]}, {"class_name": "Dense", "config": {"name": "dense_4", "trainable": true, "dtype": "float32", "units": 1, "activation": "relu", "use_bias": true, "kernel_initializer": {"class_name": "GlorotUniform", "config": {"seed": null}}, "bias_initializer": {"class_name": "Zeros", "config": {}}, "kernel_regularizer": null, "bias_regularizer": null, "activity_regularizer": null, "kernel_constraint": null, "bias_constraint": null}, "name": "dense_4", "inbound_nodes": [[["tf.__operators__.getitem_4", 0, 0, {}]]]}, {"class_name": "Dense", "config": {"name": "dense_5", "trainable": true, "dtype": "float32", "units": 1, "activation": "relu", "use_bias": true, "kernel_initializer": {"class_name": "GlorotUniform", "config": {"seed": null}}, "bias_initializer": {"class_name": "Zeros", "config": {}}, "kernel_regularizer": null, "bias_regularizer": null, "activity_regularizer": null, "kernel_constraint": null, "bias_constraint": null}, "name": "dense_5", "inbound_nodes": [[["tf.__operators__.getitem_5", 0, 0, {}]]]}, {"class_name": "Dense", "config": {"name": "dense_6", "trainable": true, "dtype": "float32", "units": 1, "activation": "relu", "use_bias": true, "kernel_initializer": {"class_name": "GlorotUniform", "config": {"seed": null}}, "bias_initializer": {"class_name": "Zeros", "config": {}}, "kernel_regularizer": null, "bias_regularizer": null, "activity_regularizer": null, "kernel_constraint": null, "bias_constraint": null}, "name": "dense_6", "inbound_nodes": [[["tf.__operators__.getitem_6", 0, 0, {}]]]}, {"class_name": "Dense", "config": {"name": "dense_7", "trainable": true, "dtype": "float32", "units": 1, "activation": "relu", "use_bias": true, "kernel_initializer": {"class_name": "GlorotUniform", "config": {"seed": null}}, "bias_initializer": {"class_name": "Zeros", "config": {}}, "kernel_regularizer": null, "bias_regularizer": null, "activity_regularizer": null, "kernel_constraint": null, "bias_constraint": null}, "name": "dense_7", "inbound_nodes": [[["tf.__operators__.getitem_7", 0, 0, {}]]]}, {"class_name": "Dense", "config": {"name": "dense_8", "trainable": true, "dtype": "float32", "units": 1, "activation": "relu", "use_bias": true, "kernel_initializer": {"class_name": "GlorotUniform", "config": {"seed": null}}, "bias_initializer": {"class_name": "Zeros", "config": {}}, "kernel_regularizer": null, "bias_regularizer": null, "activity_regularizer": null, "kernel_constraint": null, "bias_constraint": null}, "name": "dense_8", "inbound_nodes": [[["tf.__operators__.getitem_8", 0, 0, {}]]]}, {"class_name": "Dense", "config": {"name": "dense_9", "trainable": true, "dtype": "float32", "units": 1, "activation": "relu", "use_bias": true, "kernel_initializer": {"class_name": "GlorotUniform", "config": {"seed": null}}, "bias_initializer": {"class_name": "Zeros", "config": {}}, "kernel_regularizer": null, "bias_regularizer": null, "activity_regularizer": null, "kernel_constraint": null, "bias_constraint": null}, "name": "dense_9", "inbound_nodes": [[["tf.__operators__.getitem_9", 0, 0, {}]]]}, {"class_name": "Dense", "config": {"name": "dense_10", "trainable": true, "dtype": "float32", "units": 1, "activation": "relu", "use_bias": true, "kernel_initializer": {"class_name": "GlorotUniform", "config": {"seed": null}}, "bias_initializer": {"class_name": "Zeros", "config": {}}, "kernel_regularizer": null, "bias_regularizer": null, "activity_regularizer": null, "kernel_constraint": null, "bias_constraint": null}, "name": "dense_10", "inbound_nodes": [[["tf.__operators__.getitem_10", 0, 0, {}]]]}, {"class_name": "Dense", "config": {"name": "dense_11", "trainable": true, "dtype": "float32", "units": 1, "activation": "relu", "use_bias": true, "kernel_initializer": {"class_name": "GlorotUniform", "config": {"seed": null}}, "bias_initializer": {"class_name": "Zeros", "config": {}}, "kernel_regularizer": null, "bias_regularizer": null, "activity_regularizer": null, "kernel_constraint": null, "bias_constraint": null}, "name": "dense_11", "inbound_nodes": [[["tf.__operators__.getitem_11", 0, 0, {}]]]}, {"class_name": "Dense", "config": {"name": "dense_12", "trainable": true, "dtype": "float32", "units": 1, "activation": "relu", "use_bias": true, "kernel_initializer": {"class_name": "GlorotUniform", "config": {"seed": null}}, "bias_initializer": {"class_name": "Zeros", "config": {}}, "kernel_regularizer": null, "bias_regularizer": null, "activity_regularizer": null, "kernel_constraint": null, "bias_constraint": null}, "name": "dense_12", "inbound_nodes": [[["tf.__operators__.getitem_12", 0, 0, {}]]]}, {"class_name": "Dense", "config": {"name": "dense_13", "trainable": true, "dtype": "float32", "units": 1, "activation": "relu", "use_bias": true, "kernel_initializer": {"class_name": "GlorotUniform", "config": {"seed": null}}, "bias_initializer": {"class_name": "Zeros", "config": {}}, "kernel_regularizer": null, "bias_regularizer": null, "activity_regularizer": null, "kernel_constraint": null, "bias_constraint": null}, "name": "dense_13", "inbound_nodes": [[["tf.__operators__.getitem_13", 0, 0, {}]]]}, {"class_name": "Dense", "config": {"name": "dense_14", "trainable": true, "dtype": "float32", "units": 1, "activation": "relu", "use_bias": true, "kernel_initializer": {"class_name": "GlorotUniform", "config": {"seed": null}}, "bias_initializer": {"class_name": "Zeros", "config": {}}, "kernel_regularizer": null, "bias_regularizer": null, "activity_regularizer": null, "kernel_constraint": null, "bias_constraint": null}, "name": "dense_14", "inbound_nodes": [[["tf.__operators__.getitem_14", 0, 0, {}]]]}, {"class_name": "Dense", "config": {"name": "dense_15", "trainable": true, "dtype": "float32", "units": 1, "activation": "relu", "use_bias": true, "kernel_initializer": {"class_name": "GlorotUniform", "config": {"seed": null}}, "bias_initializer": {"class_name": "Zeros", "config": {}}, "kernel_regularizer": null, "bias_regularizer": null, "activity_regularizer": null, "kernel_constraint": null, "bias_constraint": null}, "name": "dense_15", "inbound_nodes": [[["tf.__operators__.getitem_15", 0, 0, {}]]]}, {"class_name": "Dense", "config": {"name": "dense_16", "trainable": true, "dtype": "float32", "units": 1, "activation": "relu", "use_bias": true, "kernel_initializer": {"class_name": "GlorotUniform", "config": {"seed": null}}, "bias_initializer": {"class_name": "Zeros", "config": {}}, "kernel_regularizer": null, "bias_regularizer": null, "activity_regularizer": null, "kernel_constraint": null, "bias_constraint": null}, "name": "dense_16", "inbound_nodes": [[["tf.__operators__.getitem_16", 0, 0, {}]]]}, {"class_name": "Dense", "config": {"name": "dense_17", "trainable": true, "dtype": "float32", "units": 1, "activation": "relu", "use_bias": true, "kernel_initializer": {"class_name": "GlorotUniform", "config": {"seed": null}}, "bias_initializer": {"class_name": "Zeros", "config": {}}, "kernel_regularizer": null, "bias_regularizer": null, "activity_regularizer": null, "kernel_constraint": null, "bias_constraint": null}, "name": "dense_17", "inbound_nodes": [[["tf.__operators__.getitem_17", 0, 0, {}]]]}, {"class_name": "Dense", "config": {"name": "dense_18", "trainable": true, "dtype": "float32", "units": 1, "activation": "relu", "use_bias": true, "kernel_initializer": {"class_name": "GlorotUniform", "config": {"seed": null}}, "bias_initializer": {"class_name": "Zeros", "config": {}}, "kernel_regularizer": null, "bias_regularizer": null, "activity_regularizer": null, "kernel_constraint": null, "bias_constraint": null}, "name": "dense_18", "inbound_nodes": [[["tf.__operators__.getitem_18", 0, 0, {}]]]}, {"class_name": "Dense", "config": {"name": "dense_19", "trainable": true, "dtype": "float32", "units": 1, "activation": "relu", "use_bias": true, "kernel_initializer": {"class_name": "GlorotUniform", "config": {"seed": null}}, "bias_initializer": {"class_name": "Zeros", "config": {}}, "kernel_regularizer": null, "bias_regularizer": null, "activity_regularizer": null, "kernel_constraint": null, "bias_constraint": null}, "name": "dense_19", "inbound_nodes": [[["tf.__operators__.getitem_19", 0, 0, {}]]]}, {"class_name": "Dense", "config": {"name": "dense_20", "trainable": true, "dtype": "float32", "units": 1, "activation": "relu", "use_bias": true, "kernel_initializer": {"class_name": "GlorotUniform", "config": {"seed": null}}, "bias_initializer": {"class_name": "Zeros", "config": {}}, "kernel_regularizer": null, "bias_regularizer": null, "activity_regularizer": null, "kernel_constraint": null, "bias_constraint": null}, "name": "dense_20", "inbound_nodes": [[["tf.__operators__.getitem_20", 0, 0, {}]]]}, {"class_name": "Dense", "config": {"name": "dense_21", "trainable": true, "dtype": "float32", "units": 1, "activation": "relu", "use_bias": true, "kernel_initializer": {"class_name": "GlorotUniform", "config": {"seed": null}}, "bias_initializer": {"class_name": "Zeros", "config": {}}, "kernel_regularizer": null, "bias_regularizer": null, "activity_regularizer": null, "kernel_constraint": null, "bias_constraint": null}, "name": "dense_21", "inbound_nodes": [[["tf.__operators__.getitem_21", 0, 0, {}]]]}, {"class_name": "Dense", "config": {"name": "dense_22", "trainable": true, "dtype": "float32", "units": 1, "activation": "relu", "use_bias": true, "kernel_initializer": {"class_name": "GlorotUniform", "config": {"seed": null}}, "bias_initializer": {"class_name": "Zeros", "config": {}}, "kernel_regularizer": null, "bias_regularizer": null, "activity_regularizer": null, "kernel_constraint": null, "bias_constraint": null}, "name": "dense_22", "inbound_nodes": [[["tf.__operators__.getitem_22", 0, 0, {}]]]}, {"class_name": "Dense", "config": {"name": "dense_23", "trainable": true, "dtype": "float32", "units": 1, "activation": "relu", "use_bias": true, "kernel_initializer": {"class_name": "GlorotUniform", "config": {"seed": null}}, "bias_initializer": {"class_name": "Zeros", "config": {}}, "kernel_regularizer": null, "bias_regularizer": null, "activity_regularizer": null, "kernel_constraint": null, "bias_constraint": null}, "name": "dense_23", "inbound_nodes": [[["tf.__operators__.getitem_23", 0, 0, {}]]]}, {"class_name": "Dense", "config": {"name": "dense_24", "trainable": true, "dtype": "float32", "units": 1, "activation": "relu", "use_bias": true, "kernel_initializer": {"class_name": "GlorotUniform", "config": {"seed": null}}, "bias_initializer": {"class_name": "Zeros", "config": {}}, "kernel_regularizer": null, "bias_regularizer": null, "activity_regularizer": null, "kernel_constraint": null, "bias_constraint": null}, "name": "dense_24", "inbound_nodes": [[["tf.__operators__.getitem_24", 0, 0, {}]]]}, {"class_name": "Dense", "config": {"name": "dense_25", "trainable": true, "dtype": "float32", "units": 1, "activation": "relu", "use_bias": true, "kernel_initializer": {"class_name": "GlorotUniform", "config": {"seed": null}}, "bias_initializer": {"class_name": "Zeros", "config": {}}, "kernel_regularizer": null, "bias_regularizer": null, "activity_regularizer": null, "kernel_constraint": null, "bias_constraint": null}, "name": "dense_25", "inbound_nodes": [[["tf.__operators__.getitem_25", 0, 0, {}]]]}, {"class_name": "Dense", "config": {"name": "dense_26", "trainable": true, "dtype": "float32", "units": 1, "activation": "relu", "use_bias": true, "kernel_initializer": {"class_name": "GlorotUniform", "config": {"seed": null}}, "bias_initializer": {"class_name": "Zeros", "config": {}}, "kernel_regularizer": null, "bias_regularizer": null, "activity_regularizer": null, "kernel_constraint": null, "bias_constraint": null}, "name": "dense_26", "inbound_nodes": [[["tf.__operators__.getitem_26", 0, 0, {}]]]}, {"class_name": "Dense", "config": {"name": "dense_27", "trainable": true, "dtype": "float32", "units": 1, "activation": "relu", "use_bias": true, "kernel_initializer": {"class_name": "GlorotUniform", "config": {"seed": null}}, "bias_initializer": {"class_name": "Zeros", "config": {}}, "kernel_regularizer": null, "bias_regularizer": null, "activity_regularizer": null, "kernel_constraint": null, "bias_constraint": null}, "name": "dense_27", "inbound_nodes": [[["tf.__operators__.getitem_27", 0, 0, {}]]]}, {"class_name": "Dense", "config": {"name": "dense_28", "trainable": true, "dtype": "float32", "units": 1, "activation": "relu", "use_bias": true, "kernel_initializer": {"class_name": "GlorotUniform", "config": {"seed": null}}, "bias_initializer": {"class_name": "Zeros", "config": {}}, "kernel_regularizer": null, "bias_regularizer": null, "activity_regularizer": null, "kernel_constraint": null, "bias_constraint": null}, "name": "dense_28", "inbound_nodes": [[["tf.__operators__.getitem_28", 0, 0, {}]]]}, {"class_name": "Dense", "config": {"name": "dense_29", "trainable": true, "dtype": "float32", "units": 1, "activation": "relu", "use_bias": true, "kernel_initializer": {"class_name": "GlorotUniform", "config": {"seed": null}}, "bias_initializer": {"class_name": "Zeros", "config": {}}, "kernel_regularizer": null, "bias_regularizer": null, "activity_regularizer": null, "kernel_constraint": null, "bias_constraint": null}, "name": "dense_29", "inbound_nodes": [[["tf.__operators__.getitem_29", 0, 0, {}]]]}, {"class_name": "Dense", "config": {"name": "dense_30", "trainable": true, "dtype": "float32", "units": 1, "activation": "relu", "use_bias": true, "kernel_initializer": {"class_name": "GlorotUniform", "config": {"seed": null}}, "bias_initializer": {"class_name": "Zeros", "config": {}}, "kernel_regularizer": null, "bias_regularizer": null, "activity_regularizer": null, "kernel_constraint": null, "bias_constraint": null}, "name": "dense_30", "inbound_nodes": [[["tf.__operators__.getitem_30", 0, 0, {}]]]}, {"class_name": "Dense", "config": {"name": "dense_31", "trainable": true, "dtype": "float32", "units": 1, "activation": "relu", "use_bias": true, "kernel_initializer": {"class_name": "GlorotUniform", "config": {"seed": null}}, "bias_initializer": {"class_name": "Zeros", "config": {}}, "kernel_regularizer": null, "bias_regularizer": null, "activity_regularizer": null, "kernel_constraint": null, "bias_constraint": null}, "name": "dense_31", "inbound_nodes": [[["tf.__operators__.getitem_31", 0, 0, {}]]]}, {"class_name": "Dense", "config": {"name": "dense_32", "trainable": true, "dtype": "float32", "units": 1, "activation": "relu", "use_bias": true, "kernel_initializer": {"class_name": "GlorotUniform", "config": {"seed": null}}, "bias_initializer": {"class_name": "Zeros", "config": {}}, "kernel_regularizer": null, "bias_regularizer": null, "activity_regularizer": null, "kernel_constraint": null, "bias_constraint": null}, "name": "dense_32", "inbound_nodes": [[["tf.__operators__.getitem_32", 0, 0, {}]]]}, {"class_name": "Dense", "config": {"name": "dense_33", "trainable": true, "dtype": "float32", "units": 1, "activation": "relu", "use_bias": true, "kernel_initializer": {"class_name": "GlorotUniform", "config": {"seed": null}}, "bias_initializer": {"class_name": "Zeros", "config": {}}, "kernel_regularizer": null, "bias_regularizer": null, "activity_regularizer": null, "kernel_constraint": null, "bias_constraint": null}, "name": "dense_33", "inbound_nodes": [[["tf.__operators__.getitem_33", 0, 0, {}]]]}, {"class_name": "Dense", "config": {"name": "dense_34", "trainable": true, "dtype": "float32", "units": 1, "activation": "relu", "use_bias": true, "kernel_initializer": {"class_name": "GlorotUniform", "config": {"seed": null}}, "bias_initializer": {"class_name": "Zeros", "config": {}}, "kernel_regularizer": null, "bias_regularizer": null, "activity_regularizer": null, "kernel_constraint": null, "bias_constraint": null}, "name": "dense_34", "inbound_nodes": [[["tf.__operators__.getitem_34", 0, 0, {}]]]}, {"class_name": "Dense", "config": {"name": "dense_35", "trainable": true, "dtype": "float32", "units": 1, "activation": "relu", "use_bias": true, "kernel_initializer": {"class_name": "GlorotUniform", "config": {"seed": null}}, "bias_initializer": {"class_name": "Zeros", "config": {}}, "kernel_regularizer": null, "bias_regularizer": null, "activity_regularizer": null, "kernel_constraint": null, "bias_constraint": null}, "name": "dense_35", "inbound_nodes": [[["tf.__operators__.getitem_35", 0, 0, {}]]]}, {"class_name": "Dense", "config": {"name": "dense_36", "trainable": true, "dtype": "float32", "units": 1, "activation": "relu", "use_bias": true, "kernel_initializer": {"class_name": "GlorotUniform", "config": {"seed": null}}, "bias_initializer": {"class_name": "Zeros", "config": {}}, "kernel_regularizer": null, "bias_regularizer": null, "activity_regularizer": null, "kernel_constraint": null, "bias_constraint": null}, "name": "dense_36", "inbound_nodes": [[["tf.__operators__.getitem_36", 0, 0, {}]]]}, {"class_name": "Dense", "config": {"name": "dense_37", "trainable": true, "dtype": "float32", "units": 1, "activation": "relu", "use_bias": true, "kernel_initializer": {"class_name": "GlorotUniform", "config": {"seed": null}}, "bias_initializer": {"class_name": "Zeros", "config": {}}, "kernel_regularizer": null, "bias_regularizer": null, "activity_regularizer": null, "kernel_constraint": null, "bias_constraint": null}, "name": "dense_37", "inbound_nodes": [[["tf.__operators__.getitem_37", 0, 0, {}]]]}, {"class_name": "Dense", "config": {"name": "dense_38", "trainable": true, "dtype": "float32", "units": 1, "activation": "relu", "use_bias": true, "kernel_initializer": {"class_name": "GlorotUniform", "config": {"seed": null}}, "bias_initializer": {"class_name": "Zeros", "config": {}}, "kernel_regularizer": null, "bias_regularizer": null, "activity_regularizer": null, "kernel_constraint": null, "bias_constraint": null}, "name": "dense_38", "inbound_nodes": [[["tf.__operators__.getitem_38", 0, 0, {}]]]}, {"class_name": "Dense", "config": {"name": "dense_39", "trainable": true, "dtype": "float32", "units": 1, "activation": "relu", "use_bias": true, "kernel_initializer": {"class_name": "GlorotUniform", "config": {"seed": null}}, "bias_initializer": {"class_name": "Zeros", "config": {}}, "kernel_regularizer": null, "bias_regularizer": null, "activity_regularizer": null, "kernel_constraint": null, "bias_constraint": null}, "name": "dense_39", "inbound_nodes": [[["tf.__operators__.getitem_39", 0, 0, {}]]]}, {"class_name": "Dense", "config": {"name": "dense_40", "trainable": true, "dtype": "float32", "units": 1, "activation": "relu", "use_bias": true, "kernel_initializer": {"class_name": "GlorotUniform", "config": {"seed": null}}, "bias_initializer": {"class_name": "Zeros", "config": {}}, "kernel_regularizer": null, "bias_regularizer": null, "activity_regularizer": null, "kernel_constraint": null, "bias_constraint": null}, "name": "dense_40", "inbound_nodes": [[["tf.__operators__.getitem_40", 0, 0, {}]]]}, {"class_name": "Dense", "config": {"name": "dense_41", "trainable": true, "dtype": "float32", "units": 1, "activation": "relu", "use_bias": true, "kernel_initializer": {"class_name": "GlorotUniform", "config": {"seed": null}}, "bias_initializer": {"class_name": "Zeros", "config": {}}, "kernel_regularizer": null, "bias_regularizer": null, "activity_regularizer": null, "kernel_constraint": null, "bias_constraint": null}, "name": "dense_41", "inbound_nodes": [[["tf.__operators__.getitem_41", 0, 0, {}]]]}, {"class_name": "Dense", "config": {"name": "dense_42", "trainable": true, "dtype": "float32", "units": 1, "activation": "relu", "use_bias": true, "kernel_initializer": {"class_name": "GlorotUniform", "config": {"seed": null}}, "bias_initializer": {"class_name": "Zeros", "config": {}}, "kernel_regularizer": null, "bias_regularizer": null, "activity_regularizer": null, "kernel_constraint": null, "bias_constraint": null}, "name": "dense_42", "inbound_nodes": [[["tf.__operators__.getitem_42", 0, 0, {}]]]}, {"class_name": "Dense", "config": {"name": "dense_43", "trainable": true, "dtype": "float32", "units": 1, "activation": "relu", "use_bias": true, "kernel_initializer": {"class_name": "GlorotUniform", "config": {"seed": null}}, "bias_initializer": {"class_name": "Zeros", "config": {}}, "kernel_regularizer": null, "bias_regularizer": null, "activity_regularizer": null, "kernel_constraint": null, "bias_constraint": null}, "name": "dense_43", "inbound_nodes": [[["tf.__operators__.getitem_43", 0, 0, {}]]]}, {"class_name": "Dense", "config": {"name": "dense_44", "trainable": true, "dtype": "float32", "units": 1, "activation": "relu", "use_bias": true, "kernel_initializer": {"class_name": "GlorotUniform", "config": {"seed": null}}, "bias_initializer": {"class_name": "Zeros", "config": {}}, "kernel_regularizer": null, "bias_regularizer": null, "activity_regularizer": null, "kernel_constraint": null, "bias_constraint": null}, "name": "dense_44", "inbound_nodes": [[["tf.__operators__.getitem_44", 0, 0, {}]]]}, {"class_name": "Dense", "config": {"name": "dense_45", "trainable": true, "dtype": "float32", "units": 1, "activation": "relu", "use_bias": true, "kernel_initializer": {"class_name": "GlorotUniform", "config": {"seed": null}}, "bias_initializer": {"class_name": "Zeros", "config": {}}, "kernel_regularizer": null, "bias_regularizer": null, "activity_regularizer": null, "kernel_constraint": null, "bias_constraint": null}, "name": "dense_45", "inbound_nodes": [[["tf.__operators__.getitem_45", 0, 0, {}]]]}, {"class_name": "Dense", "config": {"name": "dense_46", "trainable": true, "dtype": "float32", "units": 1, "activation": "relu", "use_bias": true, "kernel_initializer": {"class_name": "GlorotUniform", "config": {"seed": null}}, "bias_initializer": {"class_name": "Zeros", "config": {}}, "kernel_regularizer": null, "bias_regularizer": null, "activity_regularizer": null, "kernel_constraint": null, "bias_constraint": null}, "name": "dense_46", "inbound_nodes": [[["tf.__operators__.getitem_46", 0, 0, {}]]]}, {"class_name": "Dense", "config": {"name": "dense_47", "trainable": true, "dtype": "float32", "units": 1, "activation": "relu", "use_bias": true, "kernel_initializer": {"class_name": "GlorotUniform", "config": {"seed": null}}, "bias_initializer": {"class_name": "Zeros", "config": {}}, "kernel_regularizer": null, "bias_regularizer": null, "activity_regularizer": null, "kernel_constraint": null, "bias_constraint": null}, "name": "dense_47", "inbound_nodes": [[["tf.__operators__.getitem_47", 0, 0, {}]]]}, {"class_name": "Dense", "config": {"name": "dense_48", "trainable": true, "dtype": "float32", "units": 1, "activation": "relu", "use_bias": true, "kernel_initializer": {"class_name": "GlorotUniform", "config": {"seed": null}}, "bias_initializer": {"class_name": "Zeros", "config": {}}, "kernel_regularizer": null, "bias_regularizer": null, "activity_regularizer": null, "kernel_constraint": null, "bias_constraint": null}, "name": "dense_48", "inbound_nodes": [[["tf.__operators__.getitem_48", 0, 0, {}]]]}, {"class_name": "Dense", "config": {"name": "dense_49", "trainable": true, "dtype": "float32", "units": 1, "activation": "relu", "use_bias": true, "kernel_initializer": {"class_name": "GlorotUniform", "config": {"seed": null}}, "bias_initializer": {"class_name": "Zeros", "config": {}}, "kernel_regularizer": null, "bias_regularizer": null, "activity_regularizer": null, "kernel_constraint": null, "bias_constraint": null}, "name": "dense_49", "inbound_nodes": [[["tf.__operators__.getitem_49", 0, 0, {}]]]}, {"class_name": "Dense", "config": {"name": "dense_50", "trainable": true, "dtype": "float32", "units": 1, "activation": "relu", "use_bias": true, "kernel_initializer": {"class_name": "GlorotUniform", "config": {"seed": null}}, "bias_initializer": {"class_name": "Zeros", "config": {}}, "kernel_regularizer": null, "bias_regularizer": null, "activity_regularizer": null, "kernel_constraint": null, "bias_constraint": null}, "name": "dense_50", "inbound_nodes": [[["tf.__operators__.getitem_50", 0, 0, {}]]]}, {"class_name": "Dense", "config": {"name": "dense_51", "trainable": true, "dtype": "float32", "units": 1, "activation": "relu", "use_bias": true, "kernel_initializer": {"class_name": "GlorotUniform", "config": {"seed": null}}, "bias_initializer": {"class_name": "Zeros", "config": {}}, "kernel_regularizer": null, "bias_regularizer": null, "activity_regularizer": null, "kernel_constraint": null, "bias_constraint": null}, "name": "dense_51", "inbound_nodes": [[["tf.__operators__.getitem_51", 0, 0, {}]]]}, {"class_name": "Dense", "config": {"name": "dense_52", "trainable": true, "dtype": "float32", "units": 1, "activation": "relu", "use_bias": true, "kernel_initializer": {"class_name": "GlorotUniform", "config": {"seed": null}}, "bias_initializer": {"class_name": "Zeros", "config": {}}, "kernel_regularizer": null, "bias_regularizer": null, "activity_regularizer": null, "kernel_constraint": null, "bias_constraint": null}, "name": "dense_52", "inbound_nodes": [[["tf.__operators__.getitem_52", 0, 0, {}]]]}, {"class_name": "Dense", "config": {"name": "dense_53", "trainable": true, "dtype": "float32", "units": 1, "activation": "relu", "use_bias": true, "kernel_initializer": {"class_name": "GlorotUniform", "config": {"seed": null}}, "bias_initializer": {"class_name": "Zeros", "config": {}}, "kernel_regularizer": null, "bias_regularizer": null, "activity_regularizer": null, "kernel_constraint": null, "bias_constraint": null}, "name": "dense_53", "inbound_nodes": [[["tf.__operators__.getitem_53", 0, 0, {}]]]}, {"class_name": "Dense", "config": {"name": "dense_54", "trainable": true, "dtype": "float32", "units": 1, "activation": "relu", "use_bias": true, "kernel_initializer": {"class_name": "GlorotUniform", "config": {"seed": null}}, "bias_initializer": {"class_name": "Zeros", "config": {}}, "kernel_regularizer": null, "bias_regularizer": null, "activity_regularizer": null, "kernel_constraint": null, "bias_constraint": null}, "name": "dense_54", "inbound_nodes": [[["tf.__operators__.getitem_54", 0, 0, {}]]]}, {"class_name": "Dense", "config": {"name": "dense_55", "trainable": true, "dtype": "float32", "units": 1, "activation": "relu", "use_bias": true, "kernel_initializer": {"class_name": "GlorotUniform", "config": {"seed": null}}, "bias_initializer": {"class_name": "Zeros", "config": {}}, "kernel_regularizer": null, "bias_regularizer": null, "activity_regularizer": null, "kernel_constraint": null, "bias_constraint": null}, "name": "dense_55", "inbound_nodes": [[["tf.__operators__.getitem_55", 0, 0, {}]]]}, {"class_name": "Dense", "config": {"name": "dense_56", "trainable": true, "dtype": "float32", "units": 1, "activation": "relu", "use_bias": true, "kernel_initializer": {"class_name": "GlorotUniform", "config": {"seed": null}}, "bias_initializer": {"class_name": "Zeros", "config": {}}, "kernel_regularizer": null, "bias_regularizer": null, "activity_regularizer": null, "kernel_constraint": null, "bias_constraint": null}, "name": "dense_56", "inbound_nodes": [[["tf.__operators__.getitem_56", 0, 0, {}]]]}, {"class_name": "Dense", "config": {"name": "dense_57", "trainable": true, "dtype": "float32", "units": 1, "activation": "relu", "use_bias": true, "kernel_initializer": {"class_name": "GlorotUniform", "config": {"seed": null}}, "bias_initializer": {"class_name": "Zeros", "config": {}}, "kernel_regularizer": null, "bias_regularizer": null, "activity_regularizer": null, "kernel_constraint": null, "bias_constraint": null}, "name": "dense_57", "inbound_nodes": [[["tf.__operators__.getitem_57", 0, 0, {}]]]}, {"class_name": "Dense", "config": {"name": "dense_58", "trainable": true, "dtype": "float32", "units": 1, "activation": "relu", "use_bias": true, "kernel_initializer": {"class_name": "GlorotUniform", "config": {"seed": null}}, "bias_initializer": {"class_name": "Zeros", "config": {}}, "kernel_regularizer": null, "bias_regularizer": null, "activity_regularizer": null, "kernel_constraint": null, "bias_constraint": null}, "name": "dense_58", "inbound_nodes": [[["tf.__operators__.getitem_58", 0, 0, {}]]]}, {"class_name": "Dense", "config": {"name": "dense_59", "trainable": true, "dtype": "float32", "units": 1, "activation": "relu", "use_bias": true, "kernel_initializer": {"class_name": "GlorotUniform", "config": {"seed": null}}, "bias_initializer": {"class_name": "Zeros", "config": {}}, "kernel_regularizer": null, "bias_regularizer": null, "activity_regularizer": null, "kernel_constraint": null, "bias_constraint": null}, "name": "dense_59", "inbound_nodes": [[["tf.__operators__.getitem_59", 0, 0, {}]]]}, {"class_name": "Dense", "config": {"name": "dense_60", "trainable": true, "dtype": "float32", "units": 1, "activation": "relu", "use_bias": true, "kernel_initializer": {"class_name": "GlorotUniform", "config": {"seed": null}}, "bias_initializer": {"class_name": "Zeros", "config": {}}, "kernel_regularizer": null, "bias_regularizer": null, "activity_regularizer": null, "kernel_constraint": null, "bias_constraint": null}, "name": "dense_60", "inbound_nodes": [[["tf.__operators__.getitem_60", 0, 0, {}]]]}, {"class_name": "Dense", "config": {"name": "dense_61", "trainable": true, "dtype": "float32", "units": 1, "activation": "relu", "use_bias": true, "kernel_initializer": {"class_name": "GlorotUniform", "config": {"seed": null}}, "bias_initializer": {"class_name": "Zeros", "config": {}}, "kernel_regularizer": null, "bias_regularizer": null, "activity_regularizer": null, "kernel_constraint": null, "bias_constraint": null}, "name": "dense_61", "inbound_nodes": [[["tf.__operators__.getitem_61", 0, 0, {}]]]}, {"class_name": "Dense", "config": {"name": "dense_62", "trainable": true, "dtype": "float32", "units": 1, "activation": "relu", "use_bias": true, "kernel_initializer": {"class_name": "GlorotUniform", "config": {"seed": null}}, "bias_initializer": {"class_name": "Zeros", "config": {}}, "kernel_regularizer": null, "bias_regularizer": null, "activity_regularizer": null, "kernel_constraint": null, "bias_constraint": null}, "name": "dense_62", "inbound_nodes": [[["tf.__operators__.getitem_62", 0, 0, {}]]]}, {"class_name": "Dense", "config": {"name": "dense_63", "trainable": true, "dtype": "float32", "units": 1, "activation": "relu", "use_bias": true, "kernel_initializer": {"class_name": "GlorotUniform", "config": {"seed": null}}, "bias_initializer": {"class_name": "Zeros", "config": {}}, "kernel_regularizer": null, "bias_regularizer": null, "activity_regularizer": null, "kernel_constraint": null, "bias_constraint": null}, "name": "dense_63", "inbound_nodes": [[["tf.__operators__.getitem_63", 0, 0, {}]]]}, {"class_name": "Concatenate", "config": {"name": "hle_one", "trainable": true, "dtype": "float32", "axis": -1}, "name": "hle_one", "inbound_nodes": [[["dense", 0, 0, {}], ["dense_1", 0, 0, {}], ["dense_2", 0, 0, {}], ["dense_3", 0, 0, {}], ["dense_4", 0, 0, {}], ["dense_5", 0, 0, {}], ["dense_6", 0, 0, {}], ["dense_7", 0, 0, {}], ["dense_8", 0, 0, {}], ["dense_9", 0, 0, {}], ["dense_10", 0, 0, {}], ["dense_11", 0, 0, {}], ["dense_12", 0, 0, {}], ["dense_13", 0, 0, {}], ["dense_14", 0, 0, {}], ["dense_15", 0, 0, {}], ["dense_16", 0, 0, {}], ["dense_17", 0, 0, {}], ["dense_18", 0, 0, {}], ["dense_19", 0, 0, {}], ["dense_20", 0, 0, {}], ["dense_21", 0, 0, {}], ["dense_22", 0, 0, {}], ["dense_23", 0, 0, {}], ["dense_24", 0, 0, {}], ["dense_25", 0, 0, {}], ["dense_26", 0, 0, {}], ["dense_27", 0, 0, {}], ["dense_28", 0, 0, {}], ["dense_29", 0, 0, {}], ["dense_30", 0, 0, {}], ["dense_31", 0, 0, {}], ["dense_32", 0, 0, {}], ["dense_33", 0, 0, {}], ["dense_34", 0, 0, {}], ["dense_35", 0, 0, {}], ["dense_36", 0, 0, {}], ["dense_37", 0, 0, {}], ["dense_38", 0, 0, {}], ["dense_39", 0, 0, {}], ["dense_40", 0, 0, {}], ["dense_41", 0, 0, {}], ["dense_42", 0, 0, {}], ["dense_43", 0, 0, {}], ["dense_44", 0, 0, {}], ["dense_45", 0, 0, {}], ["dense_46", 0, 0, {}], ["dense_47", 0, 0, {}], ["dense_48", 0, 0, {}], ["dense_49", 0, 0, {}], ["dense_50", 0, 0, {}], ["dense_51", 0, 0, {}], ["dense_52", 0, 0, {}], ["dense_53", 0, 0, {}], ["dense_54", 0, 0, {}], ["dense_55", 0, 0, {}], ["dense_56", 0, 0, {}], ["dense_57", 0, 0, {}], ["dense_58", 0, 0, {}], ["dense_59", 0, 0, {}], ["dense_60", 0, 0, {}], ["dense_61", 0, 0, {}], ["dense_62", 0, 0, {}], ["dense_63", 0, 0, {}]]]}, {"class_name": "SlicingOpLambda", "config": {"name": "tf.__operators__.getitem_64", "trainable": true, "dtype": "float32", "function": "__operators__.getitem"}, "name": "tf.__operators__.getitem_64", "inbound_nodes": [["hle_one", 0, 0, {"slice_spec": [{"start": null, "stop": null, "step": null}, {"start": 0, "stop": 4, "step": null}]}]]}, {"class_name": "SlicingOpLambda", "config": {"name": "tf.__operators__.getitem_65", "trainable": true, "dtype": "float32", "function": "__operators__.getitem"}, "name": "tf.__operators__.getitem_65", "inbound_nodes": [["hle_one", 0, 0, {"slice_spec": [{"start": null, "stop": null, "step": null}, {"start": 2, "stop": 6, "step": null}]}]]}, {"class_name": "SlicingOpLambda", "config": {"name": "tf.__operators__.getitem_66", "trainable": true, "dtype": "float32", "function": "__operators__.getitem"}, "name": "tf.__operators__.getitem_66", "inbound_nodes": [["hle_one", 0, 0, {"slice_spec": [{"start": null, "stop": null, "step": null}, {"start": 4, "stop": 8, "step": null}]}]]}, {"class_name": "SlicingOpLambda", "config": {"name": "tf.__operators__.getitem_67", "trainable": true, "dtype": "float32", "function": "__operators__.getitem"}, "name": "tf.__operators__.getitem_67", "inbound_nodes": [["hle_one", 0, 0, {"slice_spec": [{"start": null, "stop": null, "step": null}, {"start": 6, "stop": 10, "step": null}]}]]}, {"class_name": "SlicingOpLambda", "config": {"name": "tf.__operators__.getitem_68", "trainable": true, "dtype": "float32", "function": "__operators__.getitem"}, "name": "tf.__operators__.getitem_68", "inbound_nodes": [["hle_one", 0, 0, {"slice_spec": [{"start": null, "stop": null, "step": null}, {"start": 8, "stop": 12, "step": null}]}]]}, {"class_name": "SlicingOpLambda", "config": {"name": "tf.__operators__.getitem_69", "trainable": true, "dtype": "float32", "function": "__operators__.getitem"}, "name": "tf.__operators__.getitem_69", "inbound_nodes": [["hle_one", 0, 0, {"slice_spec": [{"start": null, "stop": null, "step": null}, {"start": 10, "stop": 14, "step": null}]}]]}, {"class_name": "SlicingOpLambda", "config": {"name": "tf.__operators__.getitem_70", "trainable": true, "dtype": "float32", "function": "__operators__.getitem"}, "name": "tf.__operators__.getitem_70", "inbound_nodes": [["hle_one", 0, 0, {"slice_spec": [{"start": null, "stop": null, "step": null}, {"start": 12, "stop": 16, "step": null}]}]]}, {"class_name": "SlicingOpLambda", "config": {"name": "tf.__operators__.getitem_71", "trainable": true, "dtype": "float32", "function": "__operators__.getitem"}, "name": "tf.__operators__.getitem_71", "inbound_nodes": [["hle_one", 0, 0, {"slice_spec": [{"start": null, "stop": null, "step": null}, {"start": 14, "stop": 18, "step": null}]}]]}, {"class_name": "SlicingOpLambda", "config": {"name": "tf.__operators__.getitem_72", "trainable": true, "dtype": "float32", "function": "__operators__.getitem"}, "name": "tf.__operators__.getitem_72", "inbound_nodes": [["hle_one", 0, 0, {"slice_spec": [{"start": null, "stop": null, "step": null}, {"start": 16, "stop": 20, "step": null}]}]]}, {"class_name": "SlicingOpLambda", "config": {"name": "tf.__operators__.getitem_73", "trainable": true, "dtype": "float32", "function": "__operators__.getitem"}, "name": "tf.__operators__.getitem_73", "inbound_nodes": [["hle_one", 0, 0, {"slice_spec": [{"start": null, "stop": null, "step": null}, {"start": 18, "stop": 22, "step": null}]}]]}, {"class_name": "SlicingOpLambda", "config": {"name": "tf.__operators__.getitem_74", "trainable": true, "dtype": "float32", "function": "__operators__.getitem"}, "name": "tf.__operators__.getitem_74", "inbound_nodes": [["hle_one", 0, 0, {"slice_spec": [{"start": null, "stop": null, "step": null}, {"start": 20, "stop": 24, "step": null}]}]]}, {"class_name": "SlicingOpLambda", "config": {"name": "tf.__operators__.getitem_75", "trainable": true, "dtype": "float32", "function": "__operators__.getitem"}, "name": "tf.__operators__.getitem_75", "inbound_nodes": [["hle_one", 0, 0, {"slice_spec": [{"start": null, "stop": null, "step": null}, {"start": 22, "stop": 26, "step": null}]}]]}, {"class_name": "SlicingOpLambda", "config": {"name": "tf.__operators__.getitem_76", "trainable": true, "dtype": "float32", "function": "__operators__.getitem"}, "name": "tf.__operators__.getitem_76", "inbound_nodes": [["hle_one", 0, 0, {"slice_spec": [{"start": null, "stop": null, "step": null}, {"start": 24, "stop": 28, "step": null}]}]]}, {"class_name": "SlicingOpLambda", "config": {"name": "tf.__operators__.getitem_77", "trainable": true, "dtype": "float32", "function": "__operators__.getitem"}, "name": "tf.__operators__.getitem_77", "inbound_nodes": [["hle_one", 0, 0, {"slice_spec": [{"start": null, "stop": null, "step": null}, {"start": 26, "stop": 30, "step": null}]}]]}, {"class_name": "SlicingOpLambda", "config": {"name": "tf.__operators__.getitem_78", "trainable": true, "dtype": "float32", "function": "__operators__.getitem"}, "name": "tf.__operators__.getitem_78", "inbound_nodes": [["hle_one", 0, 0, {"slice_spec": [{"start": null, "stop": null, "step": null}, {"start": 28, "stop": 32, "step": null}]}]]}, {"class_name": "SlicingOpLambda", "config": {"name": "tf.__operators__.getitem_79", "trainable": true, "dtype": "float32", "function": "__operators__.getitem"}, "name": "tf.__operators__.getitem_79", "inbound_nodes": [["hle_one", 0, 0, {"slice_spec": [{"start": null, "stop": null, "step": null}, {"start": 30, "stop": 34, "step": null}]}]]}, {"class_name": "SlicingOpLambda", "config": {"name": "tf.__operators__.getitem_80", "trainable": true, "dtype": "float32", "function": "__operators__.getitem"}, "name": "tf.__operators__.getitem_80", "inbound_nodes": [["hle_one", 0, 0, {"slice_spec": [{"start": null, "stop": null, "step": null}, {"start": 32, "stop": 36, "step": null}]}]]}, {"class_name": "SlicingOpLambda", "config": {"name": "tf.__operators__.getitem_81", "trainable": true, "dtype": "float32", "function": "__operators__.getitem"}, "name": "tf.__operators__.getitem_81", "inbound_nodes": [["hle_one", 0, 0, {"slice_spec": [{"start": null, "stop": null, "step": null}, {"start": 34, "stop": 38, "step": null}]}]]}, {"class_name": "SlicingOpLambda", "config": {"name": "tf.__operators__.getitem_82", "trainable": true, "dtype": "float32", "function": "__operators__.getitem"}, "name": "tf.__operators__.getitem_82", "inbound_nodes": [["hle_one", 0, 0, {"slice_spec": [{"start": null, "stop": null, "step": null}, {"start": 36, "stop": 40, "step": null}]}]]}, {"class_name": "SlicingOpLambda", "config": {"name": "tf.__operators__.getitem_83", "trainable": true, "dtype": "float32", "function": "__operators__.getitem"}, "name": "tf.__operators__.getitem_83", "inbound_nodes": [["hle_one", 0, 0, {"slice_spec": [{"start": null, "stop": null, "step": null}, {"start": 38, "stop": 42, "step": null}]}]]}, {"class_name": "SlicingOpLambda", "config": {"name": "tf.__operators__.getitem_84", "trainable": true, "dtype": "float32", "function": "__operators__.getitem"}, "name": "tf.__operators__.getitem_84", "inbound_nodes": [["hle_one", 0, 0, {"slice_spec": [{"start": null, "stop": null, "step": null}, {"start": 40, "stop": 44, "step": null}]}]]}, {"class_name": "SlicingOpLambda", "config": {"name": "tf.__operators__.getitem_85", "trainable": true, "dtype": "float32", "function": "__operators__.getitem"}, "name": "tf.__operators__.getitem_85", "inbound_nodes": [["hle_one", 0, 0, {"slice_spec": [{"start": null, "stop": null, "step": null}, {"start": 42, "stop": 46, "step": null}]}]]}, {"class_name": "SlicingOpLambda", "config": {"name": "tf.__operators__.getitem_86", "trainable": true, "dtype": "float32", "function": "__operators__.getitem"}, "name": "tf.__operators__.getitem_86", "inbound_nodes": [["hle_one", 0, 0, {"slice_spec": [{"start": null, "stop": null, "step": null}, {"start": 44, "stop": 48, "step": null}]}]]}, {"class_name": "SlicingOpLambda", "config": {"name": "tf.__operators__.getitem_87", "trainable": true, "dtype": "float32", "function": "__operators__.getitem"}, "name": "tf.__operators__.getitem_87", "inbound_nodes": [["hle_one", 0, 0, {"slice_spec": [{"start": null, "stop": null, "step": null}, {"start": 46, "stop": 50, "step": null}]}]]}, {"class_name": "SlicingOpLambda", "config": {"name": "tf.__operators__.getitem_88", "trainable": true, "dtype": "float32", "function": "__operators__.getitem"}, "name": "tf.__operators__.getitem_88", "inbound_nodes": [["hle_one", 0, 0, {"slice_spec": [{"start": null, "stop": null, "step": null}, {"start": 48, "stop": 52, "step": null}]}]]}, {"class_name": "SlicingOpLambda", "config": {"name": "tf.__operators__.getitem_89", "trainable": true, "dtype": "float32", "function": "__operators__.getitem"}, "name": "tf.__operators__.getitem_89", "inbound_nodes": [["hle_one", 0, 0, {"slice_spec": [{"start": null, "stop": null, "step": null}, {"start": 50, "stop": 54, "step": null}]}]]}, {"class_name": "SlicingOpLambda", "config": {"name": "tf.__operators__.getitem_90", "trainable": true, "dtype": "float32", "function": "__operators__.getitem"}, "name": "tf.__operators__.getitem_90", "inbound_nodes": [["hle_one", 0, 0, {"slice_spec": [{"start": null, "stop": null, "step": null}, {"start": 52, "stop": 56, "step": null}]}]]}, {"class_name": "SlicingOpLambda", "config": {"name": "tf.__operators__.getitem_91", "trainable": true, "dtype": "float32", "function": "__operators__.getitem"}, "name": "tf.__operators__.getitem_91", "inbound_nodes": [["hle_one", 0, 0, {"slice_spec": [{"start": null, "stop": null, "step": null}, {"start": 54, "stop": 58, "step": null}]}]]}, {"class_name": "SlicingOpLambda", "config": {"name": "tf.__operators__.getitem_92", "trainable": true, "dtype": "float32", "function": "__operators__.getitem"}, "name": "tf.__operators__.getitem_92", "inbound_nodes": [["hle_one", 0, 0, {"slice_spec": [{"start": null, "stop": null, "step": null}, {"start": 56, "stop": 60, "step": null}]}]]}, {"class_name": "SlicingOpLambda", "config": {"name": "tf.__operators__.getitem_93", "trainable": true, "dtype": "float32", "function": "__operators__.getitem"}, "name": "tf.__operators__.getitem_93", "inbound_nodes": [["hle_one", 0, 0, {"slice_spec": [{"start": null, "stop": null, "step": null}, {"start": 58, "stop": 62, "step": null}]}]]}, {"class_name": "SlicingOpLambda", "config": {"name": "tf.__operators__.getitem_94", "trainable": true, "dtype": "float32", "function": "__operators__.getitem"}, "name": "tf.__operators__.getitem_94", "inbound_nodes": [["hle_one", 0, 0, {"slice_spec": [{"start": null, "stop": null, "step": null}, {"start": 60, "stop": 64, "step": null}]}]]}, {"class_name": "SlicingOpLambda", "config": {"name": "tf.__operators__.getitem_95", "trainable": true, "dtype": "float32", "function": "__operators__.getitem"}, "name": "tf.__operators__.getitem_95", "inbound_nodes": [["hle_one", 0, 0, {"slice_spec": [{"start": null, "stop": null, "step": null}, {"start": -4, "stop": null, "step": null}]}]]}, {"class_name": "Dense", "config": {"name": "dense_64", "trainable": true, "dtype": "float32", "units": 1, "activation": "relu", "use_bias": true, "kernel_initializer": {"class_name": "GlorotUniform", "config": {"seed": null}}, "bias_initializer": {"class_name": "Zeros", "config": {}}, "kernel_regularizer": null, "bias_regularizer": null, "activity_regularizer": null, "kernel_constraint": null, "bias_constraint": null}, "name": "dense_64", "inbound_nodes": [[["tf.__operators__.getitem_64", 0, 0, {}]]]}, {"class_name": "Dense", "config": {"name": "dense_65", "trainable": true, "dtype": "float32", "units": 1, "activation": "relu", "use_bias": true, "kernel_initializer": {"class_name": "GlorotUniform", "config": {"seed": null}}, "bias_initializer": {"class_name": "Zeros", "config": {}}, "kernel_regularizer": null, "bias_regularizer": null, "activity_regularizer": null, "kernel_constraint": null, "bias_constraint": null}, "name": "dense_65", "inbound_nodes": [[["tf.__operators__.getitem_65", 0, 0, {}]]]}, {"class_name": "Dense", "config": {"name": "dense_66", "trainable": true, "dtype": "float32", "units": 1, "activation": "relu", "use_bias": true, "kernel_initializer": {"class_name": "GlorotUniform", "config": {"seed": null}}, "bias_initializer": {"class_name": "Zeros", "config": {}}, "kernel_regularizer": null, "bias_regularizer": null, "activity_regularizer": null, "kernel_constraint": null, "bias_constraint": null}, "name": "dense_66", "inbound_nodes": [[["tf.__operators__.getitem_66", 0, 0, {}]]]}, {"class_name": "Dense", "config": {"name": "dense_67", "trainable": true, "dtype": "float32", "units": 1, "activation": "relu", "use_bias": true, "kernel_initializer": {"class_name": "GlorotUniform", "config": {"seed": null}}, "bias_initializer": {"class_name": "Zeros", "config": {}}, "kernel_regularizer": null, "bias_regularizer": null, "activity_regularizer": null, "kernel_constraint": null, "bias_constraint": null}, "name": "dense_67", "inbound_nodes": [[["tf.__operators__.getitem_67", 0, 0, {}]]]}, {"class_name": "Dense", "config": {"name": "dense_68", "trainable": true, "dtype": "float32", "units": 1, "activation": "relu", "use_bias": true, "kernel_initializer": {"class_name": "GlorotUniform", "config": {"seed": null}}, "bias_initializer": {"class_name": "Zeros", "config": {}}, "kernel_regularizer": null, "bias_regularizer": null, "activity_regularizer": null, "kernel_constraint": null, "bias_constraint": null}, "name": "dense_68", "inbound_nodes": [[["tf.__operators__.getitem_68", 0, 0, {}]]]}, {"class_name": "Dense", "config": {"name": "dense_69", "trainable": true, "dtype": "float32", "units": 1, "activation": "relu", "use_bias": true, "kernel_initializer": {"class_name": "GlorotUniform", "config": {"seed": null}}, "bias_initializer": {"class_name": "Zeros", "config": {}}, "kernel_regularizer": null, "bias_regularizer": null, "activity_regularizer": null, "kernel_constraint": null, "bias_constraint": null}, "name": "dense_69", "inbound_nodes": [[["tf.__operators__.getitem_69", 0, 0, {}]]]}, {"class_name": "Dense", "config": {"name": "dense_70", "trainable": true, "dtype": "float32", "units": 1, "activation": "relu", "use_bias": true, "kernel_initializer": {"class_name": "GlorotUniform", "config": {"seed": null}}, "bias_initializer": {"class_name": "Zeros", "config": {}}, "kernel_regularizer": null, "bias_regularizer": null, "activity_regularizer": null, "kernel_constraint": null, "bias_constraint": null}, "name": "dense_70", "inbound_nodes": [[["tf.__operators__.getitem_70", 0, 0, {}]]]}, {"class_name": "Dense", "config": {"name": "dense_71", "trainable": true, "dtype": "float32", "units": 1, "activation": "relu", "use_bias": true, "kernel_initializer": {"class_name": "GlorotUniform", "config": {"seed": null}}, "bias_initializer": {"class_name": "Zeros", "config": {}}, "kernel_regularizer": null, "bias_regularizer": null, "activity_regularizer": null, "kernel_constraint": null, "bias_constraint": null}, "name": "dense_71", "inbound_nodes": [[["tf.__operators__.getitem_71", 0, 0, {}]]]}, {"class_name": "Dense", "config": {"name": "dense_72", "trainable": true, "dtype": "float32", "units": 1, "activation": "relu", "use_bias": true, "kernel_initializer": {"class_name": "GlorotUniform", "config": {"seed": null}}, "bias_initializer": {"class_name": "Zeros", "config": {}}, "kernel_regularizer": null, "bias_regularizer": null, "activity_regularizer": null, "kernel_constraint": null, "bias_constraint": null}, "name": "dense_72", "inbound_nodes": [[["tf.__operators__.getitem_72", 0, 0, {}]]]}, {"class_name": "Dense", "config": {"name": "dense_73", "trainable": true, "dtype": "float32", "units": 1, "activation": "relu", "use_bias": true, "kernel_initializer": {"class_name": "GlorotUniform", "config": {"seed": null}}, "bias_initializer": {"class_name": "Zeros", "config": {}}, "kernel_regularizer": null, "bias_regularizer": null, "activity_regularizer": null, "kernel_constraint": null, "bias_constraint": null}, "name": "dense_73", "inbound_nodes": [[["tf.__operators__.getitem_73", 0, 0, {}]]]}, {"class_name": "Dense", "config": {"name": "dense_74", "trainable": true, "dtype": "float32", "units": 1, "activation": "relu", "use_bias": true, "kernel_initializer": {"class_name": "GlorotUniform", "config": {"seed": null}}, "bias_initializer": {"class_name": "Zeros", "config": {}}, "kernel_regularizer": null, "bias_regularizer": null, "activity_regularizer": null, "kernel_constraint": null, "bias_constraint": null}, "name": "dense_74", "inbound_nodes": [[["tf.__operators__.getitem_74", 0, 0, {}]]]}, {"class_name": "Dense", "config": {"name": "dense_75", "trainable": true, "dtype": "float32", "units": 1, "activation": "relu", "use_bias": true, "kernel_initializer": {"class_name": "GlorotUniform", "config": {"seed": null}}, "bias_initializer": {"class_name": "Zeros", "config": {}}, "kernel_regularizer": null, "bias_regularizer": null, "activity_regularizer": null, "kernel_constraint": null, "bias_constraint": null}, "name": "dense_75", "inbound_nodes": [[["tf.__operators__.getitem_75", 0, 0, {}]]]}, {"class_name": "Dense", "config": {"name": "dense_76", "trainable": true, "dtype": "float32", "units": 1, "activation": "relu", "use_bias": true, "kernel_initializer": {"class_name": "GlorotUniform", "config": {"seed": null}}, "bias_initializer": {"class_name": "Zeros", "config": {}}, "kernel_regularizer": null, "bias_regularizer": null, "activity_regularizer": null, "kernel_constraint": null, "bias_constraint": null}, "name": "dense_76", "inbound_nodes": [[["tf.__operators__.getitem_76", 0, 0, {}]]]}, {"class_name": "Dense", "config": {"name": "dense_77", "trainable": true, "dtype": "float32", "units": 1, "activation": "relu", "use_bias": true, "kernel_initializer": {"class_name": "GlorotUniform", "config": {"seed": null}}, "bias_initializer": {"class_name": "Zeros", "config": {}}, "kernel_regularizer": null, "bias_regularizer": null, "activity_regularizer": null, "kernel_constraint": null, "bias_constraint": null}, "name": "dense_77", "inbound_nodes": [[["tf.__operators__.getitem_77", 0, 0, {}]]]}, {"class_name": "Dense", "config": {"name": "dense_78", "trainable": true, "dtype": "float32", "units": 1, "activation": "relu", "use_bias": true, "kernel_initializer": {"class_name": "GlorotUniform", "config": {"seed": null}}, "bias_initializer": {"class_name": "Zeros", "config": {}}, "kernel_regularizer": null, "bias_regularizer": null, "activity_regularizer": null, "kernel_constraint": null, "bias_constraint": null}, "name": "dense_78", "inbound_nodes": [[["tf.__operators__.getitem_78", 0, 0, {}]]]}, {"class_name": "Dense", "config": {"name": "dense_79", "trainable": true, "dtype": "float32", "units": 1, "activation": "relu", "use_bias": true, "kernel_initializer": {"class_name": "GlorotUniform", "config": {"seed": null}}, "bias_initializer": {"class_name": "Zeros", "config": {}}, "kernel_regularizer": null, "bias_regularizer": null, "activity_regularizer": null, "kernel_constraint": null, "bias_constraint": null}, "name": "dense_79", "inbound_nodes": [[["tf.__operators__.getitem_79", 0, 0, {}]]]}, {"class_name": "Dense", "config": {"name": "dense_80", "trainable": true, "dtype": "float32", "units": 1, "activation": "relu", "use_bias": true, "kernel_initializer": {"class_name": "GlorotUniform", "config": {"seed": null}}, "bias_initializer": {"class_name": "Zeros", "config": {}}, "kernel_regularizer": null, "bias_regularizer": null, "activity_regularizer": null, "kernel_constraint": null, "bias_constraint": null}, "name": "dense_80", "inbound_nodes": [[["tf.__operators__.getitem_80", 0, 0, {}]]]}, {"class_name": "Dense", "config": {"name": "dense_81", "trainable": true, "dtype": "float32", "units": 1, "activation": "relu", "use_bias": true, "kernel_initializer": {"class_name": "GlorotUniform", "config": {"seed": null}}, "bias_initializer": {"class_name": "Zeros", "config": {}}, "kernel_regularizer": null, "bias_regularizer": null, "activity_regularizer": null, "kernel_constraint": null, "bias_constraint": null}, "name": "dense_81", "inbound_nodes": [[["tf.__operators__.getitem_81", 0, 0, {}]]]}, {"class_name": "Dense", "config": {"name": "dense_82", "trainable": true, "dtype": "float32", "units": 1, "activation": "relu", "use_bias": true, "kernel_initializer": {"class_name": "GlorotUniform", "config": {"seed": null}}, "bias_initializer": {"class_name": "Zeros", "config": {}}, "kernel_regularizer": null, "bias_regularizer": null, "activity_regularizer": null, "kernel_constraint": null, "bias_constraint": null}, "name": "dense_82", "inbound_nodes": [[["tf.__operators__.getitem_82", 0, 0, {}]]]}, {"class_name": "Dense", "config": {"name": "dense_83", "trainable": true, "dtype": "float32", "units": 1, "activation": "relu", "use_bias": true, "kernel_initializer": {"class_name": "GlorotUniform", "config": {"seed": null}}, "bias_initializer": {"class_name": "Zeros", "config": {}}, "kernel_regularizer": null, "bias_regularizer": null, "activity_regularizer": null, "kernel_constraint": null, "bias_constraint": null}, "name": "dense_83", "inbound_nodes": [[["tf.__operators__.getitem_83", 0, 0, {}]]]}, {"class_name": "Dense", "config": {"name": "dense_84", "trainable": true, "dtype": "float32", "units": 1, "activation": "relu", "use_bias": true, "kernel_initializer": {"class_name": "GlorotUniform", "config": {"seed": null}}, "bias_initializer": {"class_name": "Zeros", "config": {}}, "kernel_regularizer": null, "bias_regularizer": null, "activity_regularizer": null, "kernel_constraint": null, "bias_constraint": null}, "name": "dense_84", "inbound_nodes": [[["tf.__operators__.getitem_84", 0, 0, {}]]]}, {"class_name": "Dense", "config": {"name": "dense_85", "trainable": true, "dtype": "float32", "units": 1, "activation": "relu", "use_bias": true, "kernel_initializer": {"class_name": "GlorotUniform", "config": {"seed": null}}, "bias_initializer": {"class_name": "Zeros", "config": {}}, "kernel_regularizer": null, "bias_regularizer": null, "activity_regularizer": null, "kernel_constraint": null, "bias_constraint": null}, "name": "dense_85", "inbound_nodes": [[["tf.__operators__.getitem_85", 0, 0, {}]]]}, {"class_name": "Dense", "config": {"name": "dense_86", "trainable": true, "dtype": "float32", "units": 1, "activation": "relu", "use_bias": true, "kernel_initializer": {"class_name": "GlorotUniform", "config": {"seed": null}}, "bias_initializer": {"class_name": "Zeros", "config": {}}, "kernel_regularizer": null, "bias_regularizer": null, "activity_regularizer": null, "kernel_constraint": null, "bias_constraint": null}, "name": "dense_86", "inbound_nodes": [[["tf.__operators__.getitem_86", 0, 0, {}]]]}, {"class_name": "Dense", "config": {"name": "dense_87", "trainable": true, "dtype": "float32", "units": 1, "activation": "relu", "use_bias": true, "kernel_initializer": {"class_name": "GlorotUniform", "config": {"seed": null}}, "bias_initializer": {"class_name": "Zeros", "config": {}}, "kernel_regularizer": null, "bias_regularizer": null, "activity_regularizer": null, "kernel_constraint": null, "bias_constraint": null}, "name": "dense_87", "inbound_nodes": [[["tf.__operators__.getitem_87", 0, 0, {}]]]}, {"class_name": "Dense", "config": {"name": "dense_88", "trainable": true, "dtype": "float32", "units": 1, "activation": "relu", "use_bias": true, "kernel_initializer": {"class_name": "GlorotUniform", "config": {"seed": null}}, "bias_initializer": {"class_name": "Zeros", "config": {}}, "kernel_regularizer": null, "bias_regularizer": null, "activity_regularizer": null, "kernel_constraint": null, "bias_constraint": null}, "name": "dense_88", "inbound_nodes": [[["tf.__operators__.getitem_88", 0, 0, {}]]]}, {"class_name": "Dense", "config": {"name": "dense_89", "trainable": true, "dtype": "float32", "units": 1, "activation": "relu", "use_bias": true, "kernel_initializer": {"class_name": "GlorotUniform", "config": {"seed": null}}, "bias_initializer": {"class_name": "Zeros", "config": {}}, "kernel_regularizer": null, "bias_regularizer": null, "activity_regularizer": null, "kernel_constraint": null, "bias_constraint": null}, "name": "dense_89", "inbound_nodes": [[["tf.__operators__.getitem_89", 0, 0, {}]]]}, {"class_name": "Dense", "config": {"name": "dense_90", "trainable": true, "dtype": "float32", "units": 1, "activation": "relu", "use_bias": true, "kernel_initializer": {"class_name": "GlorotUniform", "config": {"seed": null}}, "bias_initializer": {"class_name": "Zeros", "config": {}}, "kernel_regularizer": null, "bias_regularizer": null, "activity_regularizer": null, "kernel_constraint": null, "bias_constraint": null}, "name": "dense_90", "inbound_nodes": [[["tf.__operators__.getitem_90", 0, 0, {}]]]}, {"class_name": "Dense", "config": {"name": "dense_91", "trainable": true, "dtype": "float32", "units": 1, "activation": "relu", "use_bias": true, "kernel_initializer": {"class_name": "GlorotUniform", "config": {"seed": null}}, "bias_initializer": {"class_name": "Zeros", "config": {}}, "kernel_regularizer": null, "bias_regularizer": null, "activity_regularizer": null, "kernel_constraint": null, "bias_constraint": null}, "name": "dense_91", "inbound_nodes": [[["tf.__operators__.getitem_91", 0, 0, {}]]]}, {"class_name": "Dense", "config": {"name": "dense_92", "trainable": true, "dtype": "float32", "units": 1, "activation": "relu", "use_bias": true, "kernel_initializer": {"class_name": "GlorotUniform", "config": {"seed": null}}, "bias_initializer": {"class_name": "Zeros", "config": {}}, "kernel_regularizer": null, "bias_regularizer": null, "activity_regularizer": null, "kernel_constraint": null, "bias_constraint": null}, "name": "dense_92", "inbound_nodes": [[["tf.__operators__.getitem_92", 0, 0, {}]]]}, {"class_name": "Dense", "config": {"name": "dense_93", "trainable": true, "dtype": "float32", "units": 1, "activation": "relu", "use_bias": true, "kernel_initializer": {"class_name": "GlorotUniform", "config": {"seed": null}}, "bias_initializer": {"class_name": "Zeros", "config": {}}, "kernel_regularizer": null, "bias_regularizer": null, "activity_regularizer": null, "kernel_constraint": null, "bias_constraint": null}, "name": "dense_93", "inbound_nodes": [[["tf.__operators__.getitem_93", 0, 0, {}]]]}, {"class_name": "Dense", "config": {"name": "dense_94", "trainable": true, "dtype": "float32", "units": 1, "activation": "relu", "use_bias": true, "kernel_initializer": {"class_name": "GlorotUniform", "config": {"seed": null}}, "bias_initializer": {"class_name": "Zeros", "config": {}}, "kernel_regularizer": null, "bias_regularizer": null, "activity_regularizer": null, "kernel_constraint": null, "bias_constraint": null}, "name": "dense_94", "inbound_nodes": [[["tf.__operators__.getitem_94", 0, 0, {}]]]}, {"class_name": "Dense", "config": {"name": "dense_95", "trainable": true, "dtype": "float32", "units": 1, "activation": "relu", "use_bias": true, "kernel_initializer": {"class_name": "GlorotUniform", "config": {"seed": null}}, "bias_initializer": {"class_name": "Zeros", "config": {}}, "kernel_regularizer": null, "bias_regularizer": null, "activity_regularizer": null, "kernel_constraint": null, "bias_constraint": null}, "name": "dense_95", "inbound_nodes": [[["tf.__operators__.getitem_95", 0, 0, {}]]]}, {"class_name": "Concatenate", "config": {"name": "hle_two", "trainable": true, "dtype": "float32", "axis": -1}, "name": "hle_two", "inbound_nodes": [[["dense_64", 0, 0, {}], ["dense_65", 0, 0, {}], ["dense_66", 0, 0, {}], ["dense_67", 0, 0, {}], ["dense_68", 0, 0, {}], ["dense_69", 0, 0, {}], ["dense_70", 0, 0, {}], ["dense_71", 0, 0, {}], ["dense_72", 0, 0, {}], ["dense_73", 0, 0, {}], ["dense_74", 0, 0, {}], ["dense_75", 0, 0, {}], ["dense_76", 0, 0, {}], ["dense_77", 0, 0, {}], ["dense_78", 0, 0, {}], ["dense_79", 0, 0, {}], ["dense_80", 0, 0, {}], ["dense_81", 0, 0, {}], ["dense_82", 0, 0, {}], ["dense_83", 0, 0, {}], ["dense_84", 0, 0, {}], ["dense_85", 0, 0, {}], ["dense_86", 0, 0, {}], ["dense_87", 0, 0, {}], ["dense_88", 0, 0, {}], ["dense_89", 0, 0, {}], ["dense_90", 0, 0, {}], ["dense_91", 0, 0, {}], ["dense_92", 0, 0, {}], ["dense_93", 0, 0, {}], ["dense_94", 0, 0, {}], ["dense_95", 0, 0, {}]]]}, {"class_name": "Dense", "config": {"name": "ls_layer", "trainable": true, "dtype": "float32", "units": 16, "activation": "relu", "use_bias": true, "kernel_initializer": {"class_name": "GlorotUniform", "config": {"seed": null}}, "bias_initializer": {"class_name": "Zeros", "config": {}}, "kernel_regularizer": null, "bias_regularizer": null, "activity_regularizer": null, "kernel_constraint": null, "bias_constraint": null}, "name": "ls_layer", "inbound_nodes": [[["hle_two", 0, 0, {}]]]}, {"class_name": "Dense", "config": {"name": "hld_two", "trainable": true, "dtype": "float32", "units": 32, "activation": "relu", "use_bias": true, "kernel_initializer": {"class_name": "GlorotUniform", "config": {"seed": null}}, "bias_initializer": {"class_name": "Zeros", "config": {}}, "kernel_regularizer": null, "bias_regularizer": null, "activity_regularizer": null, "kernel_constraint": null, "bias_constraint": null}, "name": "hld_two", "inbound_nodes": [[["ls_layer", 0, 0, {}]]]}, {"class_name": "SlicingOpLambda", "config": {"name": "tf.__operators__.getitem_96", "trainable": true, "dtype": "float32", "function": "__operators__.getitem"}, "name": "tf.__operators__.getitem_96", "inbound_nodes": [["hld_two", 0, 0, {"slice_spec": [{"start": null, "stop": null, "step": null}, {"start": 0, "stop": 1, "step": null}]}]]}, {"class_name": "SlicingOpLambda", "config": {"name": "tf.__operators__.getitem_97", "trainable": true, "dtype": "float32", "function": "__operators__.getitem"}, "name": "tf.__operators__.getitem_97", "inbound_nodes": [["hld_two", 0, 0, {"slice_spec": [{"start": null, "stop": null, "step": null}, {"start": 0, "stop": 1, "step": null}]}]]}, {"class_name": "SlicingOpLambda", "config": {"name": "tf.__operators__.getitem_98", "trainable": true, "dtype": "float32", "function": "__operators__.getitem"}, "name": "tf.__operators__.getitem_98", "inbound_nodes": [["hld_two", 0, 0, {"slice_spec": [{"start": null, "stop": null, "step": null}, {"start": 0, "stop": 2, "step": null}]}]]}, {"class_name": "SlicingOpLambda", "config": {"name": "tf.__operators__.getitem_99", "trainable": true, "dtype": "float32", "function": "__operators__.getitem"}, "name": "tf.__operators__.getitem_99", "inbound_nodes": [["hld_two", 0, 0, {"slice_spec": [{"start": null, "stop": null, "step": null}, {"start": 0, "stop": 2, "step": null}]}]]}, {"class_name": "SlicingOpLambda", "config": {"name": "tf.__operators__.getitem_100", "trainable": true, "dtype": "float32", "function": "__operators__.getitem"}, "name": "tf.__operators__.getitem_100", "inbound_nodes": [["hld_two", 0, 0, {"slice_spec": [{"start": null, "stop": null, "step": null}, {"start": 1, "stop": 3, "step": null}]}]]}, {"class_name": "SlicingOpLambda", "config": {"name": "tf.__operators__.getitem_101", "trainable": true, "dtype": "float32", "function": "__operators__.getitem"}, "name": "tf.__operators__.getitem_101", "inbound_nodes": [["hld_two", 0, 0, {"slice_spec": [{"start": null, "stop": null, "step": null}, {"start": 1, "stop": 3, "step": null}]}]]}, {"class_name": "SlicingOpLambda", "config": {"name": "tf.__operators__.getitem_102", "trainable": true, "dtype": "float32", "function": "__operators__.getitem"}, "name": "tf.__operators__.getitem_102", "inbound_nodes": [["hld_two", 0, 0, {"slice_spec": [{"start": null, "stop": null, "step": null}, {"start": 2, "stop": 4, "step": null}]}]]}, {"class_name": "SlicingOpLambda", "config": {"name": "tf.__operators__.getitem_103", "trainable": true, "dtype": "float32", "function": "__operators__.getitem"}, "name": "tf.__operators__.getitem_103", "inbound_nodes": [["hld_two", 0, 0, {"slice_spec": [{"start": null, "stop": null, "step": null}, {"start": 2, "stop": 4, "step": null}]}]]}, {"class_name": "SlicingOpLambda", "config": {"name": "tf.__operators__.getitem_104", "trainable": true, "dtype": "float32", "function": "__operators__.getitem"}, "name": "tf.__operators__.getitem_104", "inbound_nodes": [["hld_two", 0, 0, {"slice_spec": [{"start": null, "stop": null, "step": null}, {"start": 3, "stop": 5, "step": null}]}]]}, {"class_name": "SlicingOpLambda", "config": {"name": "tf.__operators__.getitem_105", "trainable": true, "dtype": "float32", "function": "__operators__.getitem"}, "name": "tf.__operators__.getitem_105", "inbound_nodes": [["hld_two", 0, 0, {"slice_spec": [{"start": null, "stop": null, "step": null}, {"start": 3, "stop": 5, "step": null}]}]]}, {"class_name": "SlicingOpLambda", "config": {"name": "tf.__operators__.getitem_106", "trainable": true, "dtype": "float32", "function": "__operators__.getitem"}, "name": "tf.__operators__.getitem_106", "inbound_nodes": [["hld_two", 0, 0, {"slice_spec": [{"start": null, "stop": null, "step": null}, {"start": 4, "stop": 6, "step": null}]}]]}, {"class_name": "SlicingOpLambda", "config": {"name": "tf.__operators__.getitem_107", "trainable": true, "dtype": "float32", "function": "__operators__.getitem"}, "name": "tf.__operators__.getitem_107", "inbound_nodes": [["hld_two", 0, 0, {"slice_spec": [{"start": null, "stop": null, "step": null}, {"start": 4, "stop": 6, "step": null}]}]]}, {"class_name": "SlicingOpLambda", "config": {"name": "tf.__operators__.getitem_108", "trainable": true, "dtype": "float32", "function": "__operators__.getitem"}, "name": "tf.__operators__.getitem_108", "inbound_nodes": [["hld_two", 0, 0, {"slice_spec": [{"start": null, "stop": null, "step": null}, {"start": 5, "stop": 7, "step": null}]}]]}, {"class_name": "SlicingOpLambda", "config": {"name": "tf.__operators__.getitem_109", "trainable": true, "dtype": "float32", "function": "__operators__.getitem"}, "name": "tf.__operators__.getitem_109", "inbound_nodes": [["hld_two", 0, 0, {"slice_spec": [{"start": null, "stop": null, "step": null}, {"start": 5, "stop": 7, "step": null}]}]]}, {"class_name": "SlicingOpLambda", "config": {"name": "tf.__operators__.getitem_110", "trainable": true, "dtype": "float32", "function": "__operators__.getitem"}, "name": "tf.__operators__.getitem_110", "inbound_nodes": [["hld_two", 0, 0, {"slice_spec": [{"start": null, "stop": null, "step": null}, {"start": 6, "stop": 8, "step": null}]}]]}, {"class_name": "SlicingOpLambda", "config": {"name": "tf.__operators__.getitem_111", "trainable": true, "dtype": "float32", "function": "__operators__.getitem"}, "name": "tf.__operators__.getitem_111", "inbound_nodes": [["hld_two", 0, 0, {"slice_spec": [{"start": null, "stop": null, "step": null}, {"start": 6, "stop": 8, "step": null}]}]]}, {"class_name": "SlicingOpLambda", "config": {"name": "tf.__operators__.getitem_112", "trainable": true, "dtype": "float32", "function": "__operators__.getitem"}, "name": "tf.__operators__.getitem_112", "inbound_nodes": [["hld_two", 0, 0, {"slice_spec": [{"start": null, "stop": null, "step": null}, {"start": 7, "stop": 9, "step": null}]}]]}, {"class_name": "SlicingOpLambda", "config": {"name": "tf.__operators__.getitem_113", "trainable": true, "dtype": "float32", "function": "__operators__.getitem"}, "name": "tf.__operators__.getitem_113", "inbound_nodes": [["hld_two", 0, 0, {"slice_spec": [{"start": null, "stop": null, "step": null}, {"start": 7, "stop": 9, "step": null}]}]]}, {"class_name": "SlicingOpLambda", "config": {"name": "tf.__operators__.getitem_114", "trainable": true, "dtype": "float32", "function": "__operators__.getitem"}, "name": "tf.__operators__.getitem_114", "inbound_nodes": [["hld_two", 0, 0, {"slice_spec": [{"start": null, "stop": null, "step": null}, {"start": 8, "stop": 10, "step": null}]}]]}, {"class_name": "SlicingOpLambda", "config": {"name": "tf.__operators__.getitem_115", "trainable": true, "dtype": "float32", "function": "__operators__.getitem"}, "name": "tf.__operators__.getitem_115", "inbound_nodes": [["hld_two", 0, 0, {"slice_spec": [{"start": null, "stop": null, "step": null}, {"start": 8, "stop": 10, "step": null}]}]]}, {"class_name": "SlicingOpLambda", "config": {"name": "tf.__operators__.getitem_116", "trainable": true, "dtype": "float32", "function": "__operators__.getitem"}, "name": "tf.__operators__.getitem_116", "inbound_nodes": [["hld_two", 0, 0, {"slice_spec": [{"start": null, "stop": null, "step": null}, {"start": 9, "stop": 11, "step": null}]}]]}, {"class_name": "SlicingOpLambda", "config": {"name": "tf.__operators__.getitem_117", "trainable": true, "dtype": "float32", "function": "__operators__.getitem"}, "name": "tf.__operators__.getitem_117", "inbound_nodes": [["hld_two", 0, 0, {"slice_spec": [{"start": null, "stop": null, "step": null}, {"start": 9, "stop": 11, "step": null}]}]]}, {"class_name": "SlicingOpLambda", "config": {"name": "tf.__operators__.getitem_118", "trainable": true, "dtype": "float32", "function": "__operators__.getitem"}, "name": "tf.__operators__.getitem_118", "inbound_nodes": [["hld_two", 0, 0, {"slice_spec": [{"start": null, "stop": null, "step": null}, {"start": 10, "stop": 12, "step": null}]}]]}, {"class_name": "SlicingOpLambda", "config": {"name": "tf.__operators__.getitem_119", "trainable": true, "dtype": "float32", "function": "__operators__.getitem"}, "name": "tf.__operators__.getitem_119", "inbound_nodes": [["hld_two", 0, 0, {"slice_spec": [{"start": null, "stop": null, "step": null}, {"start": 10, "stop": 12, "step": null}]}]]}, {"class_name": "SlicingOpLambda", "config": {"name": "tf.__operators__.getitem_120", "trainable": true, "dtype": "float32", "function": "__operators__.getitem"}, "name": "tf.__operators__.getitem_120", "inbound_nodes": [["hld_two", 0, 0, {"slice_spec": [{"start": null, "stop": null, "step": null}, {"start": 11, "stop": 13, "step": null}]}]]}, {"class_name": "SlicingOpLambda", "config": {"name": "tf.__operators__.getitem_121", "trainable": true, "dtype": "float32", "function": "__operators__.getitem"}, "name": "tf.__operators__.getitem_121", "inbound_nodes": [["hld_two", 0, 0, {"slice_spec": [{"start": null, "stop": null, "step": null}, {"start": 11, "stop": 13, "step": null}]}]]}, {"class_name": "SlicingOpLambda", "config": {"name": "tf.__operators__.getitem_122", "trainable": true, "dtype": "float32", "function": "__operators__.getitem"}, "name": "tf.__operators__.getitem_122", "inbound_nodes": [["hld_two", 0, 0, {"slice_spec": [{"start": null, "stop": null, "step": null}, {"start": 12, "stop": 14, "step": null}]}]]}, {"class_name": "SlicingOpLambda", "config": {"name": "tf.__operators__.getitem_123", "trainable": true, "dtype": "float32", "function": "__operators__.getitem"}, "name": "tf.__operators__.getitem_123", "inbound_nodes": [["hld_two", 0, 0, {"slice_spec": [{"start": null, "stop": null, "step": null}, {"start": 12, "stop": 14, "step": null}]}]]}, {"class_name": "SlicingOpLambda", "config": {"name": "tf.__operators__.getitem_124", "trainable": true, "dtype": "float32", "function": "__operators__.getitem"}, "name": "tf.__operators__.getitem_124", "inbound_nodes": [["hld_two", 0, 0, {"slice_spec": [{"start": null, "stop": null, "step": null}, {"start": 13, "stop": 15, "step": null}]}]]}, {"class_name": "SlicingOpLambda", "config": {"name": "tf.__operators__.getitem_125", "trainable": true, "dtype": "float32", "function": "__operators__.getitem"}, "name": "tf.__operators__.getitem_125", "inbound_nodes": [["hld_two", 0, 0, {"slice_spec": [{"start": null, "stop": null, "step": null}, {"start": 13, "stop": 15, "step": null}]}]]}, {"class_name": "SlicingOpLambda", "config": {"name": "tf.__operators__.getitem_126", "trainable": true, "dtype": "float32", "function": "__operators__.getitem"}, "name": "tf.__operators__.getitem_126", "inbound_nodes": [["hld_two", 0, 0, {"slice_spec": [{"start": null, "stop": null, "step": null}, {"start": 14, "stop": 16, "step": null}]}]]}, {"class_name": "SlicingOpLambda", "config": {"name": "tf.__operators__.getitem_127", "trainable": true, "dtype": "float32", "function": "__operators__.getitem"}, "name": "tf.__operators__.getitem_127", "inbound_nodes": [["hld_two", 0, 0, {"slice_spec": [{"start": null, "stop": null, "step": null}, {"start": 14, "stop": 16, "step": null}]}]]}, {"class_name": "SlicingOpLambda", "config": {"name": "tf.__operators__.getitem_128", "trainable": true, "dtype": "float32", "function": "__operators__.getitem"}, "name": "tf.__operators__.getitem_128", "inbound_nodes": [["hld_two", 0, 0, {"slice_spec": [{"start": null, "stop": null, "step": null}, {"start": 15, "stop": 17, "step": null}]}]]}, {"class_name": "SlicingOpLambda", "config": {"name": "tf.__operators__.getitem_129", "trainable": true, "dtype": "float32", "function": "__operators__.getitem"}, "name": "tf.__operators__.getitem_129", "inbound_nodes": [["hld_two", 0, 0, {"slice_spec": [{"start": null, "stop": null, "step": null}, {"start": 15, "stop": 17, "step": null}]}]]}, {"class_name": "SlicingOpLambda", "config": {"name": "tf.__operators__.getitem_130", "trainable": true, "dtype": "float32", "function": "__operators__.getitem"}, "name": "tf.__operators__.getitem_130", "inbound_nodes": [["hld_two", 0, 0, {"slice_spec": [{"start": null, "stop": null, "step": null}, {"start": 16, "stop": 18, "step": null}]}]]}, {"class_name": "SlicingOpLambda", "config": {"name": "tf.__operators__.getitem_131", "trainable": true, "dtype": "float32", "function": "__operators__.getitem"}, "name": "tf.__operators__.getitem_131", "inbound_nodes": [["hld_two", 0, 0, {"slice_spec": [{"start": null, "stop": null, "step": null}, {"start": 16, "stop": 18, "step": null}]}]]}, {"class_name": "SlicingOpLambda", "config": {"name": "tf.__operators__.getitem_132", "trainable": true, "dtype": "float32", "function": "__operators__.getitem"}, "name": "tf.__operators__.getitem_132", "inbound_nodes": [["hld_two", 0, 0, {"slice_spec": [{"start": null, "stop": null, "step": null}, {"start": 17, "stop": 19, "step": null}]}]]}, {"class_name": "SlicingOpLambda", "config": {"name": "tf.__operators__.getitem_133", "trainable": true, "dtype": "float32", "function": "__operators__.getitem"}, "name": "tf.__operators__.getitem_133", "inbound_nodes": [["hld_two", 0, 0, {"slice_spec": [{"start": null, "stop": null, "step": null}, {"start": 17, "stop": 19, "step": null}]}]]}, {"class_name": "SlicingOpLambda", "config": {"name": "tf.__operators__.getitem_134", "trainable": true, "dtype": "float32", "function": "__operators__.getitem"}, "name": "tf.__operators__.getitem_134", "inbound_nodes": [["hld_two", 0, 0, {"slice_spec": [{"start": null, "stop": null, "step": null}, {"start": 18, "stop": 20, "step": null}]}]]}, {"class_name": "SlicingOpLambda", "config": {"name": "tf.__operators__.getitem_135", "trainable": true, "dtype": "float32", "function": "__operators__.getitem"}, "name": "tf.__operators__.getitem_135", "inbound_nodes": [["hld_two", 0, 0, {"slice_spec": [{"start": null, "stop": null, "step": null}, {"start": 18, "stop": 20, "step": null}]}]]}, {"class_name": "SlicingOpLambda", "config": {"name": "tf.__operators__.getitem_136", "trainable": true, "dtype": "float32", "function": "__operators__.getitem"}, "name": "tf.__operators__.getitem_136", "inbound_nodes": [["hld_two", 0, 0, {"slice_spec": [{"start": null, "stop": null, "step": null}, {"start": 19, "stop": 21, "step": null}]}]]}, {"class_name": "SlicingOpLambda", "config": {"name": "tf.__operators__.getitem_137", "trainable": true, "dtype": "float32", "function": "__operators__.getitem"}, "name": "tf.__operators__.getitem_137", "inbound_nodes": [["hld_two", 0, 0, {"slice_spec": [{"start": null, "stop": null, "step": null}, {"start": 19, "stop": 21, "step": null}]}]]}, {"class_name": "SlicingOpLambda", "config": {"name": "tf.__operators__.getitem_138", "trainable": true, "dtype": "float32", "function": "__operators__.getitem"}, "name": "tf.__operators__.getitem_138", "inbound_nodes": [["hld_two", 0, 0, {"slice_spec": [{"start": null, "stop": null, "step": null}, {"start": 20, "stop": 22, "step": null}]}]]}, {"class_name": "SlicingOpLambda", "config": {"name": "tf.__operators__.getitem_139", "trainable": true, "dtype": "float32", "function": "__operators__.getitem"}, "name": "tf.__operators__.getitem_139", "inbound_nodes": [["hld_two", 0, 0, {"slice_spec": [{"start": null, "stop": null, "step": null}, {"start": 20, "stop": 22, "step": null}]}]]}, {"class_name": "SlicingOpLambda", "config": {"name": "tf.__operators__.getitem_140", "trainable": true, "dtype": "float32", "function": "__operators__.getitem"}, "name": "tf.__operators__.getitem_140", "inbound_nodes": [["hld_two", 0, 0, {"slice_spec": [{"start": null, "stop": null, "step": null}, {"start": 21, "stop": 23, "step": null}]}]]}, {"class_name": "SlicingOpLambda", "config": {"name": "tf.__operators__.getitem_141", "trainable": true, "dtype": "float32", "function": "__operators__.getitem"}, "name": "tf.__operators__.getitem_141", "inbound_nodes": [["hld_two", 0, 0, {"slice_spec": [{"start": null, "stop": null, "step": null}, {"start": 21, "stop": 23, "step": null}]}]]}, {"class_name": "SlicingOpLambda", "config": {"name": "tf.__operators__.getitem_142", "trainable": true, "dtype": "float32", "function": "__operators__.getitem"}, "name": "tf.__operators__.getitem_142", "inbound_nodes": [["hld_two", 0, 0, {"slice_spec": [{"start": null, "stop": null, "step": null}, {"start": 22, "stop": 24, "step": null}]}]]}, {"class_name": "SlicingOpLambda", "config": {"name": "tf.__operators__.getitem_143", "trainable": true, "dtype": "float32", "function": "__operators__.getitem"}, "name": "tf.__operators__.getitem_143", "inbound_nodes": [["hld_two", 0, 0, {"slice_spec": [{"start": null, "stop": null, "step": null}, {"start": 22, "stop": 24, "step": null}]}]]}, {"class_name": "SlicingOpLambda", "config": {"name": "tf.__operators__.getitem_144", "trainable": true, "dtype": "float32", "function": "__operators__.getitem"}, "name": "tf.__operators__.getitem_144", "inbound_nodes": [["hld_two", 0, 0, {"slice_spec": [{"start": null, "stop": null, "step": null}, {"start": 23, "stop": 25, "step": null}]}]]}, {"class_name": "SlicingOpLambda", "config": {"name": "tf.__operators__.getitem_145", "trainable": true, "dtype": "float32", "function": "__operators__.getitem"}, "name": "tf.__operators__.getitem_145", "inbound_nodes": [["hld_two", 0, 0, {"slice_spec": [{"start": null, "stop": null, "step": null}, {"start": 23, "stop": 25, "step": null}]}]]}, {"class_name": "SlicingOpLambda", "config": {"name": "tf.__operators__.getitem_146", "trainable": true, "dtype": "float32", "function": "__operators__.getitem"}, "name": "tf.__operators__.getitem_146", "inbound_nodes": [["hld_two", 0, 0, {"slice_spec": [{"start": null, "stop": null, "step": null}, {"start": 24, "stop": 26, "step": null}]}]]}, {"class_name": "SlicingOpLambda", "config": {"name": "tf.__operators__.getitem_147", "trainable": true, "dtype": "float32", "function": "__operators__.getitem"}, "name": "tf.__operators__.getitem_147", "inbound_nodes": [["hld_two", 0, 0, {"slice_spec": [{"start": null, "stop": null, "step": null}, {"start": 24, "stop": 26, "step": null}]}]]}, {"class_name": "SlicingOpLambda", "config": {"name": "tf.__operators__.getitem_148", "trainable": true, "dtype": "float32", "function": "__operators__.getitem"}, "name": "tf.__operators__.getitem_148", "inbound_nodes": [["hld_two", 0, 0, {"slice_spec": [{"start": null, "stop": null, "step": null}, {"start": 25, "stop": 27, "step": null}]}]]}, {"class_name": "SlicingOpLambda", "config": {"name": "tf.__operators__.getitem_149", "trainable": true, "dtype": "float32", "function": "__operators__.getitem"}, "name": "tf.__operators__.getitem_149", "inbound_nodes": [["hld_two", 0, 0, {"slice_spec": [{"start": null, "stop": null, "step": null}, {"start": 25, "stop": 27, "step": null}]}]]}, {"class_name": "SlicingOpLambda", "config": {"name": "tf.__operators__.getitem_150", "trainable": true, "dtype": "float32", "function": "__operators__.getitem"}, "name": "tf.__operators__.getitem_150", "inbound_nodes": [["hld_two", 0, 0, {"slice_spec": [{"start": null, "stop": null, "step": null}, {"start": 26, "stop": 28, "step": null}]}]]}, {"class_name": "SlicingOpLambda", "config": {"name": "tf.__operators__.getitem_151", "trainable": true, "dtype": "float32", "function": "__operators__.getitem"}, "name": "tf.__operators__.getitem_151", "inbound_nodes": [["hld_two", 0, 0, {"slice_spec": [{"start": null, "stop": null, "step": null}, {"start": 26, "stop": 28, "step": null}]}]]}, {"class_name": "SlicingOpLambda", "config": {"name": "tf.__operators__.getitem_152", "trainable": true, "dtype": "float32", "function": "__operators__.getitem"}, "name": "tf.__operators__.getitem_152", "inbound_nodes": [["hld_two", 0, 0, {"slice_spec": [{"start": null, "stop": null, "step": null}, {"start": 27, "stop": 29, "step": null}]}]]}, {"class_name": "SlicingOpLambda", "config": {"name": "tf.__operators__.getitem_153", "trainable": true, "dtype": "float32", "function": "__operators__.getitem"}, "name": "tf.__operators__.getitem_153", "inbound_nodes": [["hld_two", 0, 0, {"slice_spec": [{"start": null, "stop": null, "step": null}, {"start": 27, "stop": 29, "step": null}]}]]}, {"class_name": "SlicingOpLambda", "config": {"name": "tf.__operators__.getitem_154", "trainable": true, "dtype": "float32", "function": "__operators__.getitem"}, "name": "tf.__operators__.getitem_154", "inbound_nodes": [["hld_two", 0, 0, {"slice_spec": [{"start": null, "stop": null, "step": null}, {"start": 28, "stop": 30, "step": null}]}]]}, {"class_name": "SlicingOpLambda", "config": {"name": "tf.__operators__.getitem_155", "trainable": true, "dtype": "float32", "function": "__operators__.getitem"}, "name": "tf.__operators__.getitem_155", "inbound_nodes": [["hld_two", 0, 0, {"slice_spec": [{"start": null, "stop": null, "step": null}, {"start": 28, "stop": 30, "step": null}]}]]}, {"class_name": "SlicingOpLambda", "config": {"name": "tf.__operators__.getitem_156", "trainable": true, "dtype": "float32", "function": "__operators__.getitem"}, "name": "tf.__operators__.getitem_156", "inbound_nodes": [["hld_two", 0, 0, {"slice_spec": [{"start": null, "stop": null, "step": null}, {"start": 29, "stop": 31, "step": null}]}]]}, {"class_name": "SlicingOpLambda", "config": {"name": "tf.__operators__.getitem_157", "trainable": true, "dtype": "float32", "function": "__operators__.getitem"}, "name": "tf.__operators__.getitem_157", "inbound_nodes": [["hld_two", 0, 0, {"slice_spec": [{"start": null, "stop": null, "step": null}, {"start": 29, "stop": 31, "step": null}]}]]}, {"class_name": "SlicingOpLambda", "config": {"name": "tf.__operators__.getitem_158", "trainable": true, "dtype": "float32", "function": "__operators__.getitem"}, "name": "tf.__operators__.getitem_158", "inbound_nodes": [["hld_two", 0, 0, {"slice_spec": [{"start": null, "stop": null, "step": null}, {"start": 30, "stop": 32, "step": null}]}]]}, {"class_name": "SlicingOpLambda", "config": {"name": "tf.__operators__.getitem_159", "trainable": true, "dtype": "float32", "function": "__operators__.getitem"}, "name": "tf.__operators__.getitem_159", "inbound_nodes": [["hld_two", 0, 0, {"slice_spec": [{"start": null, "stop": null, "step": null}, {"start": -4, "stop": null, "step": null}]}]]}, {"class_name": "Dense", "config": {"name": "dense_96", "trainable": true, "dtype": "float32", "units": 1, "activation": "relu", "use_bias": true, "kernel_initializer": {"class_name": "GlorotUniform", "config": {"seed": null}}, "bias_initializer": {"class_name": "Zeros", "config": {}}, "kernel_regularizer": null, "bias_regularizer": null, "activity_regularizer": null, "kernel_constraint": null, "bias_constraint": null}, "name": "dense_96", "inbound_nodes": [[["tf.__operators__.getitem_96", 0, 0, {}]]]}, {"class_name": "Dense", "config": {"name": "dense_97", "trainable": true, "dtype": "float32", "units": 1, "activation": "relu", "use_bias": true, "kernel_initializer": {"class_name": "GlorotUniform", "config": {"seed": null}}, "bias_initializer": {"class_name": "Zeros", "config": {}}, "kernel_regularizer": null, "bias_regularizer": null, "activity_regularizer": null, "kernel_constraint": null, "bias_constraint": null}, "name": "dense_97", "inbound_nodes": [[["tf.__operators__.getitem_97", 0, 0, {}]]]}, {"class_name": "Dense", "config": {"name": "dense_98", "trainable": true, "dtype": "float32", "units": 1, "activation": "relu", "use_bias": true, "kernel_initializer": {"class_name": "GlorotUniform", "config": {"seed": null}}, "bias_initializer": {"class_name": "Zeros", "config": {}}, "kernel_regularizer": null, "bias_regularizer": null, "activity_regularizer": null, "kernel_constraint": null, "bias_constraint": null}, "name": "dense_98", "inbound_nodes": [[["tf.__operators__.getitem_98", 0, 0, {}]]]}, {"class_name": "Dense", "config": {"name": "dense_99", "trainable": true, "dtype": "float32", "units": 1, "activation": "relu", "use_bias": true, "kernel_initializer": {"class_name": "GlorotUniform", "config": {"seed": null}}, "bias_initializer": {"class_name": "Zeros", "config": {}}, "kernel_regularizer": null, "bias_regularizer": null, "activity_regularizer": null, "kernel_constraint": null, "bias_constraint": null}, "name": "dense_99", "inbound_nodes": [[["tf.__operators__.getitem_99", 0, 0, {}]]]}, {"class_name": "Dense", "config": {"name": "dense_100", "trainable": true, "dtype": "float32", "units": 1, "activation": "relu", "use_bias": true, "kernel_initializer": {"class_name": "GlorotUniform", "config": {"seed": null}}, "bias_initializer": {"class_name": "Zeros", "config": {}}, "kernel_regularizer": null, "bias_regularizer": null, "activity_regularizer": null, "kernel_constraint": null, "bias_constraint": null}, "name": "dense_100", "inbound_nodes": [[["tf.__operators__.getitem_100", 0, 0, {}]]]}, {"class_name": "Dense", "config": {"name": "dense_101", "trainable": true, "dtype": "float32", "units": 1, "activation": "relu", "use_bias": true, "kernel_initializer": {"class_name": "GlorotUniform", "config": {"seed": null}}, "bias_initializer": {"class_name": "Zeros", "config": {}}, "kernel_regularizer": null, "bias_regularizer": null, "activity_regularizer": null, "kernel_constraint": null, "bias_constraint": null}, "name": "dense_101", "inbound_nodes": [[["tf.__operators__.getitem_101", 0, 0, {}]]]}, {"class_name": "Dense", "config": {"name": "dense_102", "trainable": true, "dtype": "float32", "units": 1, "activation": "relu", "use_bias": true, "kernel_initializer": {"class_name": "GlorotUniform", "config": {"seed": null}}, "bias_initializer": {"class_name": "Zeros", "config": {}}, "kernel_regularizer": null, "bias_regularizer": null, "activity_regularizer": null, "kernel_constraint": null, "bias_constraint": null}, "name": "dense_102", "inbound_nodes": [[["tf.__operators__.getitem_102", 0, 0, {}]]]}, {"class_name": "Dense", "config": {"name": "dense_103", "trainable": true, "dtype": "float32", "units": 1, "activation": "relu", "use_bias": true, "kernel_initializer": {"class_name": "GlorotUniform", "config": {"seed": null}}, "bias_initializer": {"class_name": "Zeros", "config": {}}, "kernel_regularizer": null, "bias_regularizer": null, "activity_regularizer": null, "kernel_constraint": null, "bias_constraint": null}, "name": "dense_103", "inbound_nodes": [[["tf.__operators__.getitem_103", 0, 0, {}]]]}, {"class_name": "Dense", "config": {"name": "dense_104", "trainable": true, "dtype": "float32", "units": 1, "activation": "relu", "use_bias": true, "kernel_initializer": {"class_name": "GlorotUniform", "config": {"seed": null}}, "bias_initializer": {"class_name": "Zeros", "config": {}}, "kernel_regularizer": null, "bias_regularizer": null, "activity_regularizer": null, "kernel_constraint": null, "bias_constraint": null}, "name": "dense_104", "inbound_nodes": [[["tf.__operators__.getitem_104", 0, 0, {}]]]}, {"class_name": "Dense", "config": {"name": "dense_105", "trainable": true, "dtype": "float32", "units": 1, "activation": "relu", "use_bias": true, "kernel_initializer": {"class_name": "GlorotUniform", "config": {"seed": null}}, "bias_initializer": {"class_name": "Zeros", "config": {}}, "kernel_regularizer": null, "bias_regularizer": null, "activity_regularizer": null, "kernel_constraint": null, "bias_constraint": null}, "name": "dense_105", "inbound_nodes": [[["tf.__operators__.getitem_105", 0, 0, {}]]]}, {"class_name": "Dense", "config": {"name": "dense_106", "trainable": true, "dtype": "float32", "units": 1, "activation": "relu", "use_bias": true, "kernel_initializer": {"class_name": "GlorotUniform", "config": {"seed": null}}, "bias_initializer": {"class_name": "Zeros", "config": {}}, "kernel_regularizer": null, "bias_regularizer": null, "activity_regularizer": null, "kernel_constraint": null, "bias_constraint": null}, "name": "dense_106", "inbound_nodes": [[["tf.__operators__.getitem_106", 0, 0, {}]]]}, {"class_name": "Dense", "config": {"name": "dense_107", "trainable": true, "dtype": "float32", "units": 1, "activation": "relu", "use_bias": true, "kernel_initializer": {"class_name": "GlorotUniform", "config": {"seed": null}}, "bias_initializer": {"class_name": "Zeros", "config": {}}, "kernel_regularizer": null, "bias_regularizer": null, "activity_regularizer": null, "kernel_constraint": null, "bias_constraint": null}, "name": "dense_107", "inbound_nodes": [[["tf.__operators__.getitem_107", 0, 0, {}]]]}, {"class_name": "Dense", "config": {"name": "dense_108", "trainable": true, "dtype": "float32", "units": 1, "activation": "relu", "use_bias": true, "kernel_initializer": {"class_name": "GlorotUniform", "config": {"seed": null}}, "bias_initializer": {"class_name": "Zeros", "config": {}}, "kernel_regularizer": null, "bias_regularizer": null, "activity_regularizer": null, "kernel_constraint": null, "bias_constraint": null}, "name": "dense_108", "inbound_nodes": [[["tf.__operators__.getitem_108", 0, 0, {}]]]}, {"class_name": "Dense", "config": {"name": "dense_109", "trainable": true, "dtype": "float32", "units": 1, "activation": "relu", "use_bias": true, "kernel_initializer": {"class_name": "GlorotUniform", "config": {"seed": null}}, "bias_initializer": {"class_name": "Zeros", "config": {}}, "kernel_regularizer": null, "bias_regularizer": null, "activity_regularizer": null, "kernel_constraint": null, "bias_constraint": null}, "name": "dense_109", "inbound_nodes": [[["tf.__operators__.getitem_109", 0, 0, {}]]]}, {"class_name": "Dense", "config": {"name": "dense_110", "trainable": true, "dtype": "float32", "units": 1, "activation": "relu", "use_bias": true, "kernel_initializer": {"class_name": "GlorotUniform", "config": {"seed": null}}, "bias_initializer": {"class_name": "Zeros", "config": {}}, "kernel_regularizer": null, "bias_regularizer": null, "activity_regularizer": null, "kernel_constraint": null, "bias_constraint": null}, "name": "dense_110", "inbound_nodes": [[["tf.__operators__.getitem_110", 0, 0, {}]]]}, {"class_name": "Dense", "config": {"name": "dense_111", "trainable": true, "dtype": "float32", "units": 1, "activation": "relu", "use_bias": true, "kernel_initializer": {"class_name": "GlorotUniform", "config": {"seed": null}}, "bias_initializer": {"class_name": "Zeros", "config": {}}, "kernel_regularizer": null, "bias_regularizer": null, "activity_regularizer": null, "kernel_constraint": null, "bias_constraint": null}, "name": "dense_111", "inbound_nodes": [[["tf.__operators__.getitem_111", 0, 0, {}]]]}, {"class_name": "Dense", "config": {"name": "dense_112", "trainable": true, "dtype": "float32", "units": 1, "activation": "relu", "use_bias": true, "kernel_initializer": {"class_name": "GlorotUniform", "config": {"seed": null}}, "bias_initializer": {"class_name": "Zeros", "config": {}}, "kernel_regularizer": null, "bias_regularizer": null, "activity_regularizer": null, "kernel_constraint": null, "bias_constraint": null}, "name": "dense_112", "inbound_nodes": [[["tf.__operators__.getitem_112", 0, 0, {}]]]}, {"class_name": "Dense", "config": {"name": "dense_113", "trainable": true, "dtype": "float32", "units": 1, "activation": "relu", "use_bias": true, "kernel_initializer": {"class_name": "GlorotUniform", "config": {"seed": null}}, "bias_initializer": {"class_name": "Zeros", "config": {}}, "kernel_regularizer": null, "bias_regularizer": null, "activity_regularizer": null, "kernel_constraint": null, "bias_constraint": null}, "name": "dense_113", "inbound_nodes": [[["tf.__operators__.getitem_113", 0, 0, {}]]]}, {"class_name": "Dense", "config": {"name": "dense_114", "trainable": true, "dtype": "float32", "units": 1, "activation": "relu", "use_bias": true, "kernel_initializer": {"class_name": "GlorotUniform", "config": {"seed": null}}, "bias_initializer": {"class_name": "Zeros", "config": {}}, "kernel_regularizer": null, "bias_regularizer": null, "activity_regularizer": null, "kernel_constraint": null, "bias_constraint": null}, "name": "dense_114", "inbound_nodes": [[["tf.__operators__.getitem_114", 0, 0, {}]]]}, {"class_name": "Dense", "config": {"name": "dense_115", "trainable": true, "dtype": "float32", "units": 1, "activation": "relu", "use_bias": true, "kernel_initializer": {"class_name": "GlorotUniform", "config": {"seed": null}}, "bias_initializer": {"class_name": "Zeros", "config": {}}, "kernel_regularizer": null, "bias_regularizer": null, "activity_regularizer": null, "kernel_constraint": null, "bias_constraint": null}, "name": "dense_115", "inbound_nodes": [[["tf.__operators__.getitem_115", 0, 0, {}]]]}, {"class_name": "Dense", "config": {"name": "dense_116", "trainable": true, "dtype": "float32", "units": 1, "activation": "relu", "use_bias": true, "kernel_initializer": {"class_name": "GlorotUniform", "config": {"seed": null}}, "bias_initializer": {"class_name": "Zeros", "config": {}}, "kernel_regularizer": null, "bias_regularizer": null, "activity_regularizer": null, "kernel_constraint": null, "bias_constraint": null}, "name": "dense_116", "inbound_nodes": [[["tf.__operators__.getitem_116", 0, 0, {}]]]}, {"class_name": "Dense", "config": {"name": "dense_117", "trainable": true, "dtype": "float32", "units": 1, "activation": "relu", "use_bias": true, "kernel_initializer": {"class_name": "GlorotUniform", "config": {"seed": null}}, "bias_initializer": {"class_name": "Zeros", "config": {}}, "kernel_regularizer": null, "bias_regularizer": null, "activity_regularizer": null, "kernel_constraint": null, "bias_constraint": null}, "name": "dense_117", "inbound_nodes": [[["tf.__operators__.getitem_117", 0, 0, {}]]]}, {"class_name": "Dense", "config": {"name": "dense_118", "trainable": true, "dtype": "float32", "units": 1, "activation": "relu", "use_bias": true, "kernel_initializer": {"class_name": "GlorotUniform", "config": {"seed": null}}, "bias_initializer": {"class_name": "Zeros", "config": {}}, "kernel_regularizer": null, "bias_regularizer": null, "activity_regularizer": null, "kernel_constraint": null, "bias_constraint": null}, "name": "dense_118", "inbound_nodes": [[["tf.__operators__.getitem_118", 0, 0, {}]]]}, {"class_name": "Dense", "config": {"name": "dense_119", "trainable": true, "dtype": "float32", "units": 1, "activation": "relu", "use_bias": true, "kernel_initializer": {"class_name": "GlorotUniform", "config": {"seed": null}}, "bias_initializer": {"class_name": "Zeros", "config": {}}, "kernel_regularizer": null, "bias_regularizer": null, "activity_regularizer": null, "kernel_constraint": null, "bias_constraint": null}, "name": "dense_119", "inbound_nodes": [[["tf.__operators__.getitem_119", 0, 0, {}]]]}, {"class_name": "Dense", "config": {"name": "dense_120", "trainable": true, "dtype": "float32", "units": 1, "activation": "relu", "use_bias": true, "kernel_initializer": {"class_name": "GlorotUniform", "config": {"seed": null}}, "bias_initializer": {"class_name": "Zeros", "config": {}}, "kernel_regularizer": null, "bias_regularizer": null, "activity_regularizer": null, "kernel_constraint": null, "bias_constraint": null}, "name": "dense_120", "inbound_nodes": [[["tf.__operators__.getitem_120", 0, 0, {}]]]}, {"class_name": "Dense", "config": {"name": "dense_121", "trainable": true, "dtype": "float32", "units": 1, "activation": "relu", "use_bias": true, "kernel_initializer": {"class_name": "GlorotUniform", "config": {"seed": null}}, "bias_initializer": {"class_name": "Zeros", "config": {}}, "kernel_regularizer": null, "bias_regularizer": null, "activity_regularizer": null, "kernel_constraint": null, "bias_constraint": null}, "name": "dense_121", "inbound_nodes": [[["tf.__operators__.getitem_121", 0, 0, {}]]]}, {"class_name": "Dense", "config": {"name": "dense_122", "trainable": true, "dtype": "float32", "units": 1, "activation": "relu", "use_bias": true, "kernel_initializer": {"class_name": "GlorotUniform", "config": {"seed": null}}, "bias_initializer": {"class_name": "Zeros", "config": {}}, "kernel_regularizer": null, "bias_regularizer": null, "activity_regularizer": null, "kernel_constraint": null, "bias_constraint": null}, "name": "dense_122", "inbound_nodes": [[["tf.__operators__.getitem_122", 0, 0, {}]]]}, {"class_name": "Dense", "config": {"name": "dense_123", "trainable": true, "dtype": "float32", "units": 1, "activation": "relu", "use_bias": true, "kernel_initializer": {"class_name": "GlorotUniform", "config": {"seed": null}}, "bias_initializer": {"class_name": "Zeros", "config": {}}, "kernel_regularizer": null, "bias_regularizer": null, "activity_regularizer": null, "kernel_constraint": null, "bias_constraint": null}, "name": "dense_123", "inbound_nodes": [[["tf.__operators__.getitem_123", 0, 0, {}]]]}, {"class_name": "Dense", "config": {"name": "dense_124", "trainable": true, "dtype": "float32", "units": 1, "activation": "relu", "use_bias": true, "kernel_initializer": {"class_name": "GlorotUniform", "config": {"seed": null}}, "bias_initializer": {"class_name": "Zeros", "config": {}}, "kernel_regularizer": null, "bias_regularizer": null, "activity_regularizer": null, "kernel_constraint": null, "bias_constraint": null}, "name": "dense_124", "inbound_nodes": [[["tf.__operators__.getitem_124", 0, 0, {}]]]}, {"class_name": "Dense", "config": {"name": "dense_125", "trainable": true, "dtype": "float32", "units": 1, "activation": "relu", "use_bias": true, "kernel_initializer": {"class_name": "GlorotUniform", "config": {"seed": null}}, "bias_initializer": {"class_name": "Zeros", "config": {}}, "kernel_regularizer": null, "bias_regularizer": null, "activity_regularizer": null, "kernel_constraint": null, "bias_constraint": null}, "name": "dense_125", "inbound_nodes": [[["tf.__operators__.getitem_125", 0, 0, {}]]]}, {"class_name": "Dense", "config": {"name": "dense_126", "trainable": true, "dtype": "float32", "units": 1, "activation": "relu", "use_bias": true, "kernel_initializer": {"class_name": "GlorotUniform", "config": {"seed": null}}, "bias_initializer": {"class_name": "Zeros", "config": {}}, "kernel_regularizer": null, "bias_regularizer": null, "activity_regularizer": null, "kernel_constraint": null, "bias_constraint": null}, "name": "dense_126", "inbound_nodes": [[["tf.__operators__.getitem_126", 0, 0, {}]]]}, {"class_name": "Dense", "config": {"name": "dense_127", "trainable": true, "dtype": "float32", "units": 1, "activation": "relu", "use_bias": true, "kernel_initializer": {"class_name": "GlorotUniform", "config": {"seed": null}}, "bias_initializer": {"class_name": "Zeros", "config": {}}, "kernel_regularizer": null, "bias_regularizer": null, "activity_regularizer": null, "kernel_constraint": null, "bias_constraint": null}, "name": "dense_127", "inbound_nodes": [[["tf.__operators__.getitem_127", 0, 0, {}]]]}, {"class_name": "Dense", "config": {"name": "dense_128", "trainable": true, "dtype": "float32", "units": 1, "activation": "relu", "use_bias": true, "kernel_initializer": {"class_name": "GlorotUniform", "config": {"seed": null}}, "bias_initializer": {"class_name": "Zeros", "config": {}}, "kernel_regularizer": null, "bias_regularizer": null, "activity_regularizer": null, "kernel_constraint": null, "bias_constraint": null}, "name": "dense_128", "inbound_nodes": [[["tf.__operators__.getitem_128", 0, 0, {}]]]}, {"class_name": "Dense", "config": {"name": "dense_129", "trainable": true, "dtype": "float32", "units": 1, "activation": "relu", "use_bias": true, "kernel_initializer": {"class_name": "GlorotUniform", "config": {"seed": null}}, "bias_initializer": {"class_name": "Zeros", "config": {}}, "kernel_regularizer": null, "bias_regularizer": null, "activity_regularizer": null, "kernel_constraint": null, "bias_constraint": null}, "name": "dense_129", "inbound_nodes": [[["tf.__operators__.getitem_129", 0, 0, {}]]]}, {"class_name": "Dense", "config": {"name": "dense_130", "trainable": true, "dtype": "float32", "units": 1, "activation": "relu", "use_bias": true, "kernel_initializer": {"class_name": "GlorotUniform", "config": {"seed": null}}, "bias_initializer": {"class_name": "Zeros", "config": {}}, "kernel_regularizer": null, "bias_regularizer": null, "activity_regularizer": null, "kernel_constraint": null, "bias_constraint": null}, "name": "dense_130", "inbound_nodes": [[["tf.__operators__.getitem_130", 0, 0, {}]]]}, {"class_name": "Dense", "config": {"name": "dense_131", "trainable": true, "dtype": "float32", "units": 1, "activation": "relu", "use_bias": true, "kernel_initializer": {"class_name": "GlorotUniform", "config": {"seed": null}}, "bias_initializer": {"class_name": "Zeros", "config": {}}, "kernel_regularizer": null, "bias_regularizer": null, "activity_regularizer": null, "kernel_constraint": null, "bias_constraint": null}, "name": "dense_131", "inbound_nodes": [[["tf.__operators__.getitem_131", 0, 0, {}]]]}, {"class_name": "Dense", "config": {"name": "dense_132", "trainable": true, "dtype": "float32", "units": 1, "activation": "relu", "use_bias": true, "kernel_initializer": {"class_name": "GlorotUniform", "config": {"seed": null}}, "bias_initializer": {"class_name": "Zeros", "config": {}}, "kernel_regularizer": null, "bias_regularizer": null, "activity_regularizer": null, "kernel_constraint": null, "bias_constraint": null}, "name": "dense_132", "inbound_nodes": [[["tf.__operators__.getitem_132", 0, 0, {}]]]}, {"class_name": "Dense", "config": {"name": "dense_133", "trainable": true, "dtype": "float32", "units": 1, "activation": "relu", "use_bias": true, "kernel_initializer": {"class_name": "GlorotUniform", "config": {"seed": null}}, "bias_initializer": {"class_name": "Zeros", "config": {}}, "kernel_regularizer": null, "bias_regularizer": null, "activity_regularizer": null, "kernel_constraint": null, "bias_constraint": null}, "name": "dense_133", "inbound_nodes": [[["tf.__operators__.getitem_133", 0, 0, {}]]]}, {"class_name": "Dense", "config": {"name": "dense_134", "trainable": true, "dtype": "float32", "units": 1, "activation": "relu", "use_bias": true, "kernel_initializer": {"class_name": "GlorotUniform", "config": {"seed": null}}, "bias_initializer": {"class_name": "Zeros", "config": {}}, "kernel_regularizer": null, "bias_regularizer": null, "activity_regularizer": null, "kernel_constraint": null, "bias_constraint": null}, "name": "dense_134", "inbound_nodes": [[["tf.__operators__.getitem_134", 0, 0, {}]]]}, {"class_name": "Dense", "config": {"name": "dense_135", "trainable": true, "dtype": "float32", "units": 1, "activation": "relu", "use_bias": true, "kernel_initializer": {"class_name": "GlorotUniform", "config": {"seed": null}}, "bias_initializer": {"class_name": "Zeros", "config": {}}, "kernel_regularizer": null, "bias_regularizer": null, "activity_regularizer": null, "kernel_constraint": null, "bias_constraint": null}, "name": "dense_135", "inbound_nodes": [[["tf.__operators__.getitem_135", 0, 0, {}]]]}, {"class_name": "Dense", "config": {"name": "dense_136", "trainable": true, "dtype": "float32", "units": 1, "activation": "relu", "use_bias": true, "kernel_initializer": {"class_name": "GlorotUniform", "config": {"seed": null}}, "bias_initializer": {"class_name": "Zeros", "config": {}}, "kernel_regularizer": null, "bias_regularizer": null, "activity_regularizer": null, "kernel_constraint": null, "bias_constraint": null}, "name": "dense_136", "inbound_nodes": [[["tf.__operators__.getitem_136", 0, 0, {}]]]}, {"class_name": "Dense", "config": {"name": "dense_137", "trainable": true, "dtype": "float32", "units": 1, "activation": "relu", "use_bias": true, "kernel_initializer": {"class_name": "GlorotUniform", "config": {"seed": null}}, "bias_initializer": {"class_name": "Zeros", "config": {}}, "kernel_regularizer": null, "bias_regularizer": null, "activity_regularizer": null, "kernel_constraint": null, "bias_constraint": null}, "name": "dense_137", "inbound_nodes": [[["tf.__operators__.getitem_137", 0, 0, {}]]]}, {"class_name": "Dense", "config": {"name": "dense_138", "trainable": true, "dtype": "float32", "units": 1, "activation": "relu", "use_bias": true, "kernel_initializer": {"class_name": "GlorotUniform", "config": {"seed": null}}, "bias_initializer": {"class_name": "Zeros", "config": {}}, "kernel_regularizer": null, "bias_regularizer": null, "activity_regularizer": null, "kernel_constraint": null, "bias_constraint": null}, "name": "dense_138", "inbound_nodes": [[["tf.__operators__.getitem_138", 0, 0, {}]]]}, {"class_name": "Dense", "config": {"name": "dense_139", "trainable": true, "dtype": "float32", "units": 1, "activation": "relu", "use_bias": true, "kernel_initializer": {"class_name": "GlorotUniform", "config": {"seed": null}}, "bias_initializer": {"class_name": "Zeros", "config": {}}, "kernel_regularizer": null, "bias_regularizer": null, "activity_regularizer": null, "kernel_constraint": null, "bias_constraint": null}, "name": "dense_139", "inbound_nodes": [[["tf.__operators__.getitem_139", 0, 0, {}]]]}, {"class_name": "Dense", "config": {"name": "dense_140", "trainable": true, "dtype": "float32", "units": 1, "activation": "relu", "use_bias": true, "kernel_initializer": {"class_name": "GlorotUniform", "config": {"seed": null}}, "bias_initializer": {"class_name": "Zeros", "config": {}}, "kernel_regularizer": null, "bias_regularizer": null, "activity_regularizer": null, "kernel_constraint": null, "bias_constraint": null}, "name": "dense_140", "inbound_nodes": [[["tf.__operators__.getitem_140", 0, 0, {}]]]}, {"class_name": "Dense", "config": {"name": "dense_141", "trainable": true, "dtype": "float32", "units": 1, "activation": "relu", "use_bias": true, "kernel_initializer": {"class_name": "GlorotUniform", "config": {"seed": null}}, "bias_initializer": {"class_name": "Zeros", "config": {}}, "kernel_regularizer": null, "bias_regularizer": null, "activity_regularizer": null, "kernel_constraint": null, "bias_constraint": null}, "name": "dense_141", "inbound_nodes": [[["tf.__operators__.getitem_141", 0, 0, {}]]]}, {"class_name": "Dense", "config": {"name": "dense_142", "trainable": true, "dtype": "float32", "units": 1, "activation": "relu", "use_bias": true, "kernel_initializer": {"class_name": "GlorotUniform", "config": {"seed": null}}, "bias_initializer": {"class_name": "Zeros", "config": {}}, "kernel_regularizer": null, "bias_regularizer": null, "activity_regularizer": null, "kernel_constraint": null, "bias_constraint": null}, "name": "dense_142", "inbound_nodes": [[["tf.__operators__.getitem_142", 0, 0, {}]]]}, {"class_name": "Dense", "config": {"name": "dense_143", "trainable": true, "dtype": "float32", "units": 1, "activation": "relu", "use_bias": true, "kernel_initializer": {"class_name": "GlorotUniform", "config": {"seed": null}}, "bias_initializer": {"class_name": "Zeros", "config": {}}, "kernel_regularizer": null, "bias_regularizer": null, "activity_regularizer": null, "kernel_constraint": null, "bias_constraint": null}, "name": "dense_143", "inbound_nodes": [[["tf.__operators__.getitem_143", 0, 0, {}]]]}, {"class_name": "Dense", "config": {"name": "dense_144", "trainable": true, "dtype": "float32", "units": 1, "activation": "relu", "use_bias": true, "kernel_initializer": {"class_name": "GlorotUniform", "config": {"seed": null}}, "bias_initializer": {"class_name": "Zeros", "config": {}}, "kernel_regularizer": null, "bias_regularizer": null, "activity_regularizer": null, "kernel_constraint": null, "bias_constraint": null}, "name": "dense_144", "inbound_nodes": [[["tf.__operators__.getitem_144", 0, 0, {}]]]}, {"class_name": "Dense", "config": {"name": "dense_145", "trainable": true, "dtype": "float32", "units": 1, "activation": "relu", "use_bias": true, "kernel_initializer": {"class_name": "GlorotUniform", "config": {"seed": null}}, "bias_initializer": {"class_name": "Zeros", "config": {}}, "kernel_regularizer": null, "bias_regularizer": null, "activity_regularizer": null, "kernel_constraint": null, "bias_constraint": null}, "name": "dense_145", "inbound_nodes": [[["tf.__operators__.getitem_145", 0, 0, {}]]]}, {"class_name": "Dense", "config": {"name": "dense_146", "trainable": true, "dtype": "float32", "units": 1, "activation": "relu", "use_bias": true, "kernel_initializer": {"class_name": "GlorotUniform", "config": {"seed": null}}, "bias_initializer": {"class_name": "Zeros", "config": {}}, "kernel_regularizer": null, "bias_regularizer": null, "activity_regularizer": null, "kernel_constraint": null, "bias_constraint": null}, "name": "dense_146", "inbound_nodes": [[["tf.__operators__.getitem_146", 0, 0, {}]]]}, {"class_name": "Dense", "config": {"name": "dense_147", "trainable": true, "dtype": "float32", "units": 1, "activation": "relu", "use_bias": true, "kernel_initializer": {"class_name": "GlorotUniform", "config": {"seed": null}}, "bias_initializer": {"class_name": "Zeros", "config": {}}, "kernel_regularizer": null, "bias_regularizer": null, "activity_regularizer": null, "kernel_constraint": null, "bias_constraint": null}, "name": "dense_147", "inbound_nodes": [[["tf.__operators__.getitem_147", 0, 0, {}]]]}, {"class_name": "Dense", "config": {"name": "dense_148", "trainable": true, "dtype": "float32", "units": 1, "activation": "relu", "use_bias": true, "kernel_initializer": {"class_name": "GlorotUniform", "config": {"seed": null}}, "bias_initializer": {"class_name": "Zeros", "config": {}}, "kernel_regularizer": null, "bias_regularizer": null, "activity_regularizer": null, "kernel_constraint": null, "bias_constraint": null}, "name": "dense_148", "inbound_nodes": [[["tf.__operators__.getitem_148", 0, 0, {}]]]}, {"class_name": "Dense", "config": {"name": "dense_149", "trainable": true, "dtype": "float32", "units": 1, "activation": "relu", "use_bias": true, "kernel_initializer": {"class_name": "GlorotUniform", "config": {"seed": null}}, "bias_initializer": {"class_name": "Zeros", "config": {}}, "kernel_regularizer": null, "bias_regularizer": null, "activity_regularizer": null, "kernel_constraint": null, "bias_constraint": null}, "name": "dense_149", "inbound_nodes": [[["tf.__operators__.getitem_149", 0, 0, {}]]]}, {"class_name": "Dense", "config": {"name": "dense_150", "trainable": true, "dtype": "float32", "units": 1, "activation": "relu", "use_bias": true, "kernel_initializer": {"class_name": "GlorotUniform", "config": {"seed": null}}, "bias_initializer": {"class_name": "Zeros", "config": {}}, "kernel_regularizer": null, "bias_regularizer": null, "activity_regularizer": null, "kernel_constraint": null, "bias_constraint": null}, "name": "dense_150", "inbound_nodes": [[["tf.__operators__.getitem_150", 0, 0, {}]]]}, {"class_name": "Dense", "config": {"name": "dense_151", "trainable": true, "dtype": "float32", "units": 1, "activation": "relu", "use_bias": true, "kernel_initializer": {"class_name": "GlorotUniform", "config": {"seed": null}}, "bias_initializer": {"class_name": "Zeros", "config": {}}, "kernel_regularizer": null, "bias_regularizer": null, "activity_regularizer": null, "kernel_constraint": null, "bias_constraint": null}, "name": "dense_151", "inbound_nodes": [[["tf.__operators__.getitem_151", 0, 0, {}]]]}, {"class_name": "Dense", "config": {"name": "dense_152", "trainable": true, "dtype": "float32", "units": 1, "activation": "relu", "use_bias": true, "kernel_initializer": {"class_name": "GlorotUniform", "config": {"seed": null}}, "bias_initializer": {"class_name": "Zeros", "config": {}}, "kernel_regularizer": null, "bias_regularizer": null, "activity_regularizer": null, "kernel_constraint": null, "bias_constraint": null}, "name": "dense_152", "inbound_nodes": [[["tf.__operators__.getitem_152", 0, 0, {}]]]}, {"class_name": "Dense", "config": {"name": "dense_153", "trainable": true, "dtype": "float32", "units": 1, "activation": "relu", "use_bias": true, "kernel_initializer": {"class_name": "GlorotUniform", "config": {"seed": null}}, "bias_initializer": {"class_name": "Zeros", "config": {}}, "kernel_regularizer": null, "bias_regularizer": null, "activity_regularizer": null, "kernel_constraint": null, "bias_constraint": null}, "name": "dense_153", "inbound_nodes": [[["tf.__operators__.getitem_153", 0, 0, {}]]]}, {"class_name": "Dense", "config": {"name": "dense_154", "trainable": true, "dtype": "float32", "units": 1, "activation": "relu", "use_bias": true, "kernel_initializer": {"class_name": "GlorotUniform", "config": {"seed": null}}, "bias_initializer": {"class_name": "Zeros", "config": {}}, "kernel_regularizer": null, "bias_regularizer": null, "activity_regularizer": null, "kernel_constraint": null, "bias_constraint": null}, "name": "dense_154", "inbound_nodes": [[["tf.__operators__.getitem_154", 0, 0, {}]]]}, {"class_name": "Dense", "config": {"name": "dense_155", "trainable": true, "dtype": "float32", "units": 1, "activation": "relu", "use_bias": true, "kernel_initializer": {"class_name": "GlorotUniform", "config": {"seed": null}}, "bias_initializer": {"class_name": "Zeros", "config": {}}, "kernel_regularizer": null, "bias_regularizer": null, "activity_regularizer": null, "kernel_constraint": null, "bias_constraint": null}, "name": "dense_155", "inbound_nodes": [[["tf.__operators__.getitem_155", 0, 0, {}]]]}, {"class_name": "Dense", "config": {"name": "dense_156", "trainable": true, "dtype": "float32", "units": 1, "activation": "relu", "use_bias": true, "kernel_initializer": {"class_name": "GlorotUniform", "config": {"seed": null}}, "bias_initializer": {"class_name": "Zeros", "config": {}}, "kernel_regularizer": null, "bias_regularizer": null, "activity_regularizer": null, "kernel_constraint": null, "bias_constraint": null}, "name": "dense_156", "inbound_nodes": [[["tf.__operators__.getitem_156", 0, 0, {}]]]}, {"class_name": "Dense", "config": {"name": "dense_157", "trainable": true, "dtype": "float32", "units": 1, "activation": "relu", "use_bias": true, "kernel_initializer": {"class_name": "GlorotUniform", "config": {"seed": null}}, "bias_initializer": {"class_name": "Zeros", "config": {}}, "kernel_regularizer": null, "bias_regularizer": null, "activity_regularizer": null, "kernel_constraint": null, "bias_constraint": null}, "name": "dense_157", "inbound_nodes": [[["tf.__operators__.getitem_157", 0, 0, {}]]]}, {"class_name": "Dense", "config": {"name": "dense_158", "trainable": true, "dtype": "float32", "units": 1, "activation": "relu", "use_bias": true, "kernel_initializer": {"class_name": "GlorotUniform", "config": {"seed": null}}, "bias_initializer": {"class_name": "Zeros", "config": {}}, "kernel_regularizer": null, "bias_regularizer": null, "activity_regularizer": null, "kernel_constraint": null, "bias_constraint": null}, "name": "dense_158", "inbound_nodes": [[["tf.__operators__.getitem_158", 0, 0, {}]]]}, {"class_name": "Dense", "config": {"name": "dense_159", "trainable": true, "dtype": "float32", "units": 1, "activation": "relu", "use_bias": true, "kernel_initializer": {"class_name": "GlorotUniform", "config": {"seed": null}}, "bias_initializer": {"class_name": "Zeros", "config": {}}, "kernel_regularizer": null, "bias_regularizer": null, "activity_regularizer": null, "kernel_constraint": null, "bias_constraint": null}, "name": "dense_159", "inbound_nodes": [[["tf.__operators__.getitem_159", 0, 0, {}]]]}, {"class_name": "Concatenate", "config": {"name": "hld_one", "trainable": true, "dtype": "float32", "axis": -1}, "name": "hld_one", "inbound_nodes": [[["dense_96", 0, 0, {}], ["dense_97", 0, 0, {}], ["dense_98", 0, 0, {}], ["dense_99", 0, 0, {}], ["dense_100", 0, 0, {}], ["dense_101", 0, 0, {}], ["dense_102", 0, 0, {}], ["dense_103", 0, 0, {}], ["dense_104", 0, 0, {}], ["dense_105", 0, 0, {}], ["dense_106", 0, 0, {}], ["dense_107", 0, 0, {}], ["dense_108", 0, 0, {}], ["dense_109", 0, 0, {}], ["dense_110", 0, 0, {}], ["dense_111", 0, 0, {}], ["dense_112", 0, 0, {}], ["dense_113", 0, 0, {}], ["dense_114", 0, 0, {}], ["dense_115", 0, 0, {}], ["dense_116", 0, 0, {}], ["dense_117", 0, 0, {}], ["dense_118", 0, 0, {}], ["dense_119", 0, 0, {}], ["dense_120", 0, 0, {}], ["dense_121", 0, 0, {}], ["dense_122", 0, 0, {}], ["dense_123", 0, 0, {}], ["dense_124", 0, 0, {}], ["dense_125", 0, 0, {}], ["dense_126", 0, 0, {}], ["dense_127", 0, 0, {}], ["dense_128", 0, 0, {}], ["dense_129", 0, 0, {}], ["dense_130", 0, 0, {}], ["dense_131", 0, 0, {}], ["dense_132", 0, 0, {}], ["dense_133", 0, 0, {}], ["dense_134", 0, 0, {}], ["dense_135", 0, 0, {}], ["dense_136", 0, 0, {}], ["dense_137", 0, 0, {}], ["dense_138", 0, 0, {}], ["dense_139", 0, 0, {}], ["dense_140", 0, 0, {}], ["dense_141", 0, 0, {}], ["dense_142", 0, 0, {}], ["dense_143", 0, 0, {}], ["dense_144", 0, 0, {}], ["dense_145", 0, 0, {}], ["dense_146", 0, 0, {}], ["dense_147", 0, 0, {}], ["dense_148", 0, 0, {}], ["dense_149", 0, 0, {}], ["dense_150", 0, 0, {}], ["dense_151", 0, 0, {}], ["dense_152", 0, 0, {}], ["dense_153", 0, 0, {}], ["dense_154", 0, 0, {}], ["dense_155", 0, 0, {}], ["dense_156", 0, 0, {}], ["dense_157", 0, 0, {}], ["dense_158", 0, 0, {}], ["dense_159", 0, 0, {}]]]}, {"class_name": "SlicingOpLambda", "config": {"name": "tf.__operators__.getitem_160", "trainable": true, "dtype": "float32", "function": "__operators__.getitem"}, "name": "tf.__operators__.getitem_160", "inbound_nodes": [["hld_one", 0, 0, {"slice_spec": [{"start": null, "stop": null, "step": null}, {"start": 0, "stop": 1, "step": null}]}]]}, {"class_name": "SlicingOpLambda", "config": {"name": "tf.__operators__.getitem_161", "trainable": true, "dtype": "float32", "function": "__operators__.getitem"}, "name": "tf.__operators__.getitem_161", "inbound_nodes": [["hld_one", 0, 0, {"slice_spec": [{"start": null, "stop": null, "step": null}, {"start": 0, "stop": 1, "step": null}]}]]}, {"class_name": "SlicingOpLambda", "config": {"name": "tf.__operators__.getitem_162", "trainable": true, "dtype": "float32", "function": "__operators__.getitem"}, "name": "tf.__operators__.getitem_162", "inbound_nodes": [["hld_one", 0, 0, {"slice_spec": [{"start": null, "stop": null, "step": null}, {"start": 0, "stop": 1, "step": null}]}]]}, {"class_name": "SlicingOpLambda", "config": {"name": "tf.__operators__.getitem_163", "trainable": true, "dtype": "float32", "function": "__operators__.getitem"}, "name": "tf.__operators__.getitem_163", "inbound_nodes": [["hld_one", 0, 0, {"slice_spec": [{"start": null, "stop": null, "step": null}, {"start": 0, "stop": 1, "step": null}]}]]}, {"class_name": "SlicingOpLambda", "config": {"name": "tf.__operators__.getitem_164", "trainable": true, "dtype": "float32", "function": "__operators__.getitem"}, "name": "tf.__operators__.getitem_164", "inbound_nodes": [["hld_one", 0, 0, {"slice_spec": [{"start": null, "stop": null, "step": null}, {"start": 1, "stop": 2, "step": null}]}]]}, {"class_name": "SlicingOpLambda", "config": {"name": "tf.__operators__.getitem_165", "trainable": true, "dtype": "float32", "function": "__operators__.getitem"}, "name": "tf.__operators__.getitem_165", "inbound_nodes": [["hld_one", 0, 0, {"slice_spec": [{"start": null, "stop": null, "step": null}, {"start": 1, "stop": 2, "step": null}]}]]}, {"class_name": "SlicingOpLambda", "config": {"name": "tf.__operators__.getitem_166", "trainable": true, "dtype": "float32", "function": "__operators__.getitem"}, "name": "tf.__operators__.getitem_166", "inbound_nodes": [["hld_one", 0, 0, {"slice_spec": [{"start": null, "stop": null, "step": null}, {"start": 1, "stop": 2, "step": null}]}]]}, {"class_name": "SlicingOpLambda", "config": {"name": "tf.__operators__.getitem_167", "trainable": true, "dtype": "float32", "function": "__operators__.getitem"}, "name": "tf.__operators__.getitem_167", "inbound_nodes": [["hld_one", 0, 0, {"slice_spec": [{"start": null, "stop": null, "step": null}, {"start": 1, "stop": 2, "step": null}]}]]}, {"class_name": "SlicingOpLambda", "config": {"name": "tf.__operators__.getitem_168", "trainable": true, "dtype": "float32", "function": "__operators__.getitem"}, "name": "tf.__operators__.getitem_168", "inbound_nodes": [["hld_one", 0, 0, {"slice_spec": [{"start": null, "stop": null, "step": null}, {"start": 2, "stop": 3, "step": null}]}]]}, {"class_name": "SlicingOpLambda", "config": {"name": "tf.__operators__.getitem_169", "trainable": true, "dtype": "float32", "function": "__operators__.getitem"}, "name": "tf.__operators__.getitem_169", "inbound_nodes": [["hld_one", 0, 0, {"slice_spec": [{"start": null, "stop": null, "step": null}, {"start": 2, "stop": 3, "step": null}]}]]}, {"class_name": "SlicingOpLambda", "config": {"name": "tf.__operators__.getitem_170", "trainable": true, "dtype": "float32", "function": "__operators__.getitem"}, "name": "tf.__operators__.getitem_170", "inbound_nodes": [["hld_one", 0, 0, {"slice_spec": [{"start": null, "stop": null, "step": null}, {"start": 2, "stop": 3, "step": null}]}]]}, {"class_name": "SlicingOpLambda", "config": {"name": "tf.__operators__.getitem_171", "trainable": true, "dtype": "float32", "function": "__operators__.getitem"}, "name": "tf.__operators__.getitem_171", "inbound_nodes": [["hld_one", 0, 0, {"slice_spec": [{"start": null, "stop": null, "step": null}, {"start": 2, "stop": 3, "step": null}]}]]}, {"class_name": "SlicingOpLambda", "config": {"name": "tf.__operators__.getitem_172", "trainable": true, "dtype": "float32", "function": "__operators__.getitem"}, "name": "tf.__operators__.getitem_172", "inbound_nodes": [["hld_one", 0, 0, {"slice_spec": [{"start": null, "stop": null, "step": null}, {"start": 3, "stop": 4, "step": null}]}]]}, {"class_name": "SlicingOpLambda", "config": {"name": "tf.__operators__.getitem_173", "trainable": true, "dtype": "float32", "function": "__operators__.getitem"}, "name": "tf.__operators__.getitem_173", "inbound_nodes": [["hld_one", 0, 0, {"slice_spec": [{"start": null, "stop": null, "step": null}, {"start": 3, "stop": 4, "step": null}]}]]}, {"class_name": "SlicingOpLambda", "config": {"name": "tf.__operators__.getitem_174", "trainable": true, "dtype": "float32", "function": "__operators__.getitem"}, "name": "tf.__operators__.getitem_174", "inbound_nodes": [["hld_one", 0, 0, {"slice_spec": [{"start": null, "stop": null, "step": null}, {"start": 3, "stop": 4, "step": null}]}]]}, {"class_name": "SlicingOpLambda", "config": {"name": "tf.__operators__.getitem_175", "trainable": true, "dtype": "float32", "function": "__operators__.getitem"}, "name": "tf.__operators__.getitem_175", "inbound_nodes": [["hld_one", 0, 0, {"slice_spec": [{"start": null, "stop": null, "step": null}, {"start": 3, "stop": 4, "step": null}]}]]}, {"class_name": "SlicingOpLambda", "config": {"name": "tf.__operators__.getitem_176", "trainable": true, "dtype": "float32", "function": "__operators__.getitem"}, "name": "tf.__operators__.getitem_176", "inbound_nodes": [["hld_one", 0, 0, {"slice_spec": [{"start": null, "stop": null, "step": null}, {"start": 4, "stop": 5, "step": null}]}]]}, {"class_name": "SlicingOpLambda", "config": {"name": "tf.__operators__.getitem_177", "trainable": true, "dtype": "float32", "function": "__operators__.getitem"}, "name": "tf.__operators__.getitem_177", "inbound_nodes": [["hld_one", 0, 0, {"slice_spec": [{"start": null, "stop": null, "step": null}, {"start": 4, "stop": 5, "step": null}]}]]}, {"class_name": "SlicingOpLambda", "config": {"name": "tf.__operators__.getitem_178", "trainable": true, "dtype": "float32", "function": "__operators__.getitem"}, "name": "tf.__operators__.getitem_178", "inbound_nodes": [["hld_one", 0, 0, {"slice_spec": [{"start": null, "stop": null, "step": null}, {"start": 4, "stop": 5, "step": null}]}]]}, {"class_name": "SlicingOpLambda", "config": {"name": "tf.__operators__.getitem_179", "trainable": true, "dtype": "float32", "function": "__operators__.getitem"}, "name": "tf.__operators__.getitem_179", "inbound_nodes": [["hld_one", 0, 0, {"slice_spec": [{"start": null, "stop": null, "step": null}, {"start": 4, "stop": 5, "step": null}]}]]}, {"class_name": "SlicingOpLambda", "config": {"name": "tf.__operators__.getitem_180", "trainable": true, "dtype": "float32", "function": "__operators__.getitem"}, "name": "tf.__operators__.getitem_180", "inbound_nodes": [["hld_one", 0, 0, {"slice_spec": [{"start": null, "stop": null, "step": null}, {"start": 5, "stop": 6, "step": null}]}]]}, {"class_name": "SlicingOpLambda", "config": {"name": "tf.__operators__.getitem_181", "trainable": true, "dtype": "float32", "function": "__operators__.getitem"}, "name": "tf.__operators__.getitem_181", "inbound_nodes": [["hld_one", 0, 0, {"slice_spec": [{"start": null, "stop": null, "step": null}, {"start": 5, "stop": 6, "step": null}]}]]}, {"class_name": "SlicingOpLambda", "config": {"name": "tf.__operators__.getitem_182", "trainable": true, "dtype": "float32", "function": "__operators__.getitem"}, "name": "tf.__ope…
{"name": "dense_327", "trainable": true, "dtype": "float32", "units": 1, "activation": "relu", "use_bias": true, "kernel_initializer": {"class_name": "GlorotUniform", "config": {"seed": null}}, "bias_initializer": {"class_name": "Zeros", "config": {}}, "kernel_regularizer": null, "bias_regularizer": null, "activity_regularizer": null, "kernel_constraint": null, "bias_constraint": null}, "name": "dense_327", "inbound_nodes": [[["tf.__operators__.getitem_327", 0, 0, {}]]]}, {"class_name": "Dense", "config": {"name": "dense_328", "trainable": true, "dtype": "float32", "units": 1, "activation": "relu", "use_bias": true, "kernel_initializer": {"class_name": "GlorotUniform", "config": {"seed": null}}, "bias_initializer": {"class_name": "Zeros", "config": {}}, "kernel_regularizer": null, "bias_regularizer": null, "activity_regularizer": null, "kernel_constraint": null, "bias_constraint": null}, "name": "dense_328", "inbound_nodes": [[["tf.__operators__.getitem_328", 0, 0, {}]]]}, {"class_name": "Dense", "config": {"name": "dense_329", "trainable": true, "dtype": "float32", "units": 1, "activation": "relu", "use_bias": true, "kernel_initializer": {"class_name": "GlorotUniform", "config": {"seed": null}}, "bias_initializer": {"class_name": "Zeros", "config": {}}, "kernel_regularizer": null, "bias_regularizer": null, "activity_regularizer": null, "kernel_constraint": null, "bias_constraint": null}, "name": "dense_329", "inbound_nodes": [[["tf.__operators__.getitem_329", 0, 0, {}]]]}, {"class_name": "Dense", "config": {"name": "dense_330", "trainable": true, "dtype": "float32", "units": 1, "activation": "relu", "use_bias": true, "kernel_initializer": {"class_name": "GlorotUniform", "config": {"seed": null}}, "bias_initializer": {"class_name": "Zeros", "config": {}}, "kernel_regularizer": null, "bias_regularizer": null, "activity_regularizer": null, "kernel_constraint": null, "bias_constraint": null}, "name": "dense_330", "inbound_nodes": [[["tf.__operators__.getitem_330", 0, 0, {}]]]}, {"class_name": "Dense", "config": {"name": "dense_331", "trainable": true, "dtype": "float32", "units": 1, "activation": "relu", "use_bias": true, "kernel_initializer": {"class_name": "GlorotUniform", "config": {"seed": null}}, "bias_initializer": {"class_name": "Zeros", "config": {}}, "kernel_regularizer": null, "bias_regularizer": null, "activity_regularizer": null, "kernel_constraint": null, "bias_constraint": null}, "name": "dense_331", "inbound_nodes": [[["tf.__operators__.getitem_331", 0, 0, {}]]]}, {"class_name": "Dense", "config": {"name": "dense_332", "trainable": true, "dtype": "float32", "units": 1, "activation": "relu", "use_bias": true, "kernel_initializer": {"class_name": "GlorotUniform", "config": {"seed": null}}, "bias_initializer": {"class_name": "Zeros", "config": {}}, "kernel_regularizer": null, "bias_regularizer": null, "activity_regularizer": null, "kernel_constraint": null, "bias_constraint": null}, "name": "dense_332", "inbound_nodes": [[["tf.__operators__.getitem_332", 0, 0, {}]]]}, {"class_name": "Dense", "config": {"name": "dense_333", "trainable": true, "dtype": "float32", "units": 1, "activation": "relu", "use_bias": true, "kernel_initializer": {"class_name": "GlorotUniform", "config": {"seed": null}}, "bias_initializer": {"class_name": "Zeros", "config": {}}, "kernel_regularizer": null, "bias_regularizer": null, "activity_regularizer": null, "kernel_constraint": null, "bias_constraint": null}, "name": "dense_333", "inbound_nodes": [[["tf.__operators__.getitem_333", 0, 0, {}]]]}, {"class_name": "Dense", "config": {"name": "dense_334", "trainable": true, "dtype": "float32", "units": 1, "activation": "relu", "use_bias": true, "kernel_initializer": {"class_name": "GlorotUniform", "config": {"seed": null}}, "bias_initializer": {"class_name": "Zeros", "config": {}}, "kernel_regularizer": null, "bias_regularizer": null, "activity_regularizer": null, "kernel_constraint": null, "bias_constraint": null}, "name": "dense_334", "inbound_nodes": [[["tf.__operators__.getitem_334", 0, 0, {}]]]}, {"class_name": "Dense", "config": {"name": "dense_335", "trainable": true, "dtype": "float32", "units": 1, "activation": "relu", "use_bias": true, "kernel_initializer": {"class_name": "GlorotUniform", "config": {"seed": null}}, "bias_initializer": {"class_name": "Zeros", "config": {}}, "kernel_regularizer": null, "bias_regularizer": null, "activity_regularizer": null, "kernel_constraint": null, "bias_constraint": null}, "name": "dense_335", "inbound_nodes": [[["tf.__operators__.getitem_335", 0, 0, {}]]]}, {"class_name": "Dense", "config": {"name": "dense_336", "trainable": true, "dtype": "float32", "units": 1, "activation": "relu", "use_bias": true, "kernel_initializer": {"class_name": "GlorotUniform", "config": {"seed": null}}, "bias_initializer": {"class_name": "Zeros", "config": {}}, "kernel_regularizer": null, "bias_regularizer": null, "activity_regularizer": null, "kernel_constraint": null, "bias_constraint": null}, "name": "dense_336", "inbound_nodes": [[["tf.__operators__.getitem_336", 0, 0, {}]]]}, {"class_name": "Dense", "config": {"name": "dense_337", "trainable": true, "dtype": "float32", "units": 1, "activation": "relu", "use_bias": true, "kernel_initializer": {"class_name": "GlorotUniform", "config": {"seed": null}}, "bias_initializer": {"class_name": "Zeros", "config": {}}, "kernel_regularizer": null, "bias_regularizer": null, "activity_regularizer": null, "kernel_constraint": null, "bias_constraint": null}, "name": "dense_337", "inbound_nodes": [[["tf.__operators__.getitem_337", 0, 0, {}]]]}, {"class_name": "Dense", "config": {"name": "dense_338", "trainable": true, "dtype": "float32", "units": 1, "activation": "relu", "use_bias": true, "kernel_initializer": {"class_name": "GlorotUniform", "config": {"seed": null}}, "bias_initializer": {"class_name": "Zeros", "config": {}}, "kernel_regularizer": null, "bias_regularizer": null, "activity_regularizer": null, "kernel_constraint": null, "bias_constraint": null}, "name": "dense_338", "inbound_nodes": [[["tf.__operators__.getitem_338", 0, 0, {}]]]}, {"class_name": "Dense", "config": {"name": "dense_339", "trainable": true, "dtype": "float32", "units": 1, "activation": "relu", "use_bias": true, "kernel_initializer": {"class_name": "GlorotUniform", "config": {"seed": null}}, "bias_initializer": {"class_name": "Zeros", "config": {}}, "kernel_regularizer": null, "bias_regularizer": null, "activity_regularizer": null, "kernel_constraint": null, "bias_constraint": null}, "name": "dense_339", "inbound_nodes": [[["tf.__operators__.getitem_339", 0, 0, {}]]]}, {"class_name": "Dense", "config": {"name": "dense_340", "trainable": true, "dtype": "float32", "units": 1, "activation": "relu", "use_bias": true, "kernel_initializer": {"class_name": "GlorotUniform", "config": {"seed": null}}, "bias_initializer": {"class_name": "Zeros", "config": {}}, "kernel_regularizer": null, "bias_regularizer": null, "activity_regularizer": null, "kernel_constraint": null, "bias_constraint": null}, "name": "dense_340", "inbound_nodes": [[["tf.__operators__.getitem_340", 0, 0, {}]]]}, {"class_name": "Dense", "config": {"name": "dense_341", "trainable": true, "dtype": "float32", "units": 1, "activation": "relu", "use_bias": true, "kernel_initializer": {"class_name": "GlorotUniform", "config": {"seed": null}}, "bias_initializer": {"class_name": "Zeros", "config": {}}, "kernel_regularizer": null, "bias_regularizer": null, "activity_regularizer": null, "kernel_constraint": null, "bias_constraint": null}, "name": "dense_341", "inbound_nodes": [[["tf.__operators__.getitem_341", 0, 0, {}]]]}, {"class_name": "Dense", "config": {"name": "dense_342", "trainable": true, "dtype": "float32", "units": 1, "activation": "relu", "use_bias": true, "kernel_initializer": {"class_name": "GlorotUniform", "config": {"seed": null}}, "bias_initializer": {"class_name": "Zeros", "config": {}}, "kernel_regularizer": null, "bias_regularizer": null, "activity_regularizer": null, "kernel_constraint": null, "bias_constraint": null}, "name": "dense_342", "inbound_nodes": [[["tf.__operators__.getitem_342", 0, 0, {}]]]}, {"class_name": "Dense", "config": {"name": "dense_343", "trainable": true, "dtype": "float32", "units": 1, "activation": "relu", "use_bias": true, "kernel_initializer": {"class_name": "GlorotUniform", "config": {"seed": null}}, "bias_initializer": {"class_name": "Zeros", "config": {}}, "kernel_regularizer": null, "bias_regularizer": null, "activity_regularizer": null, "kernel_constraint": null, "bias_constraint": null}, "name": "dense_343", "inbound_nodes": [[["tf.__operators__.getitem_343", 0, 0, {}]]]}, {"class_name": "Dense", "config": {"name": "dense_344", "trainable": true, "dtype": "float32", "units": 1, "activation": "relu", "use_bias": true, "kernel_initializer": {"class_name": "GlorotUniform", "config": {"seed": null}}, "bias_initializer": {"class_name": "Zeros", "config": {}}, "kernel_regularizer": null, "bias_regularizer": null, "activity_regularizer": null, "kernel_constraint": null, "bias_constraint": null}, "name": "dense_344", "inbound_nodes": [[["tf.__operators__.getitem_344", 0, 0, {}]]]}, {"class_name": "Dense", "config": {"name": "dense_345", "trainable": true, "dtype": "float32", "units": 1, "activation": "relu", "use_bias": true, "kernel_initializer": {"class_name": "GlorotUniform", "config": {"seed": null}}, "bias_initializer": {"class_name": "Zeros", "config": {}}, "kernel_regularizer": null, "bias_regularizer": null, "activity_regularizer": null, "kernel_constraint": null, "bias_constraint": null}, "name": "dense_345", "inbound_nodes": [[["tf.__operators__.getitem_345", 0, 0, {}]]]}, {"class_name": "Dense", "config": {"name": "dense_346", "trainable": true, "dtype": "float32", "units": 1, "activation": "relu", "use_bias": true, "kernel_initializer": {"class_name": "GlorotUniform", "config": {"seed": null}}, "bias_initializer": {"class_name": "Zeros", "config": {}}, "kernel_regularizer": null, "bias_regularizer": null, "activity_regularizer": null, "kernel_constraint": null, "bias_constraint": null}, "name": "dense_346", "inbound_nodes": [[["tf.__operators__.getitem_346", 0, 0, {}]]]}, {"class_name": "Dense", "config": {"name": "dense_347", "trainable": true, "dtype": "float32", "units": 1, "activation": "relu", "use_bias": true, "kernel_initializer": {"class_name": "GlorotUniform", "config": {"seed": null}}, "bias_initializer": {"class_name": "Zeros", "config": {}}, "kernel_regularizer": null, "bias_regularizer": null, "activity_regularizer": null, "kernel_constraint": null, "bias_constraint": null}, "name": "dense_347", "inbound_nodes": [[["tf.__operators__.getitem_347", 0, 0, {}]]]}, {"class_name": "Dense", "config": {"name": "dense_348", "trainable": true, "dtype": "float32", "units": 1, "activation": "relu", "use_bias": true, "kernel_initializer": {"class_name": "GlorotUniform", "config": {"seed": null}}, "bias_initializer": {"class_name": "Zeros", "config": {}}, "kernel_regularizer": null, "bias_regularizer": null, "activity_regularizer": null, "kernel_constraint": null, "bias_constraint": null}, "name": "dense_348", "inbound_nodes": [[["tf.__operators__.getitem_348", 0, 0, {}]]]}, {"class_name": "Dense", "config": {"name": "dense_349", "trainable": true, "dtype": "float32", "units": 1, "activation": "relu", "use_bias": true, "kernel_initializer": {"class_name": "GlorotUniform", "config": {"seed": null}}, "bias_initializer": {"class_name": "Zeros", "config": {}}, "kernel_regularizer": null, "bias_regularizer": null, "activity_regularizer": null, "kernel_constraint": null, "bias_constraint": null}, "name": "dense_349", "inbound_nodes": [[["tf.__operators__.getitem_349", 0, 0, {}]]]}, {"class_name": "Dense", "config": {"name": "dense_350", "trainable": true, "dtype": "float32", "units": 1, "activation": "relu", "use_bias": true, "kernel_initializer": {"class_name": "GlorotUniform", "config": {"seed": null}}, "bias_initializer": {"class_name": "Zeros", "config": {}}, "kernel_regularizer": null, "bias_regularizer": null, "activity_regularizer": null, "kernel_constraint": null, "bias_constraint": null}, "name": "dense_350", "inbound_nodes": [[["tf.__operators__.getitem_350", 0, 0, {}]]]}, {"class_name": "Dense", "config": {"name": "dense_351", "trainable": true, "dtype": "float32", "units": 1, "activation": "relu", "use_bias": true, "kernel_initializer": {"class_name": "GlorotUniform", "config": {"seed": null}}, "bias_initializer": {"class_name": "Zeros", "config": {}}, "kernel_regularizer": null, "bias_regularizer": null, "activity_regularizer": null, "kernel_constraint": null, "bias_constraint": null}, "name": "dense_351", "inbound_nodes": [[["tf.__operators__.getitem_351", 0, 0, {}]]]}, {"class_name": "Dense", "config": {"name": "dense_352", "trainable": true, "dtype": "float32", "units": 1, "activation": "relu", "use_bias": true, "kernel_initializer": {"class_name": "GlorotUniform", "config": {"seed": null}}, "bias_initializer": {"class_name": "Zeros", "config": {}}, "kernel_regularizer": null, "bias_regularizer": null, "activity_regularizer": null, "kernel_constraint": null, "bias_constraint": null}, "name": "dense_352", "inbound_nodes": [[["tf.__operators__.getitem_352", 0, 0, {}]]]}, {"class_name": "Dense", "config": {"name": "dense_353", "trainable": true, "dtype": "float32", "units": 1, "activation": "relu", "use_bias": true, "kernel_initializer": {"class_name": "GlorotUniform", "config": {"seed": null}}, "bias_initializer": {"class_name": "Zeros", "config": {}}, "kernel_regularizer": null, "bias_regularizer": null, "activity_regularizer": null, "kernel_constraint": null, "bias_constraint": null}, "name": "dense_353", "inbound_nodes": [[["tf.__operators__.getitem_353", 0, 0, {}]]]}, {"class_name": "Dense", "config": {"name": "dense_354", "trainable": true, "dtype": "float32", "units": 1, "activation": "relu", "use_bias": true, "kernel_initializer": {"class_name": "GlorotUniform", "config": {"seed": null}}, "bias_initializer": {"class_name": "Zeros", "config": {}}, "kernel_regularizer": null, "bias_regularizer": null, "activity_regularizer": null, "kernel_constraint": null, "bias_constraint": null}, "name": "dense_354", "inbound_nodes": [[["tf.__operators__.getitem_354", 0, 0, {}]]]}, {"class_name": "Dense", "config": {"name": "dense_355", "trainable": true, "dtype": "float32", "units": 1, "activation": "relu", "use_bias": true, "kernel_initializer": {"class_name": "GlorotUniform", "config": {"seed": null}}, "bias_initializer": {"class_name": "Zeros", "config": {}}, "kernel_regularizer": null, "bias_regularizer": null, "activity_regularizer": null, "kernel_constraint": null, "bias_constraint": null}, "name": "dense_355", "inbound_nodes": [[["tf.__operators__.getitem_355", 0, 0, {}]]]}, {"class_name": "Dense", "config": {"name": "dense_356", "trainable": true, "dtype": "float32", "units": 1, "activation": "relu", "use_bias": true, "kernel_initializer": {"class_name": "GlorotUniform", "config": {"seed": null}}, "bias_initializer": {"class_name": "Zeros", "config": {}}, "kernel_regularizer": null, "bias_regularizer": null, "activity_regularizer": null, "kernel_constraint": null, "bias_constraint": null}, "name": "dense_356", "inbound_nodes": [[["tf.__operators__.getitem_356", 0, 0, {}]]]}, {"class_name": "Dense", "config": {"name": "dense_357", "trainable": true, "dtype": "float32", "units": 1, "activation": "relu", "use_bias": true, "kernel_initializer": {"class_name": "GlorotUniform", "config": {"seed": null}}, "bias_initializer": {"class_name": "Zeros", "config": {}}, "kernel_regularizer": null, "bias_regularizer": null, "activity_regularizer": null, "kernel_constraint": null, "bias_constraint": null}, "name": "dense_357", "inbound_nodes": [[["tf.__operators__.getitem_357", 0, 0, {}]]]}, {"class_name": "Dense", "config": {"name": "dense_358", "trainable": true, "dtype": "float32", "units": 1, "activation": "relu", "use_bias": true, "kernel_initializer": {"class_name": "GlorotUniform", "config": {"seed": null}}, "bias_initializer": {"class_name": "Zeros", "config": {}}, "kernel_regularizer": null, "bias_regularizer": null, "activity_regularizer": null, "kernel_constraint": null, "bias_constraint": null}, "name": "dense_358", "inbound_nodes": [[["tf.__operators__.getitem_358", 0, 0, {}]]]}, {"class_name": "Dense", "config": {"name": "dense_359", "trainable": true, "dtype": "float32", "units": 1, "activation": "relu", "use_bias": true, "kernel_initializer": {"class_name": "GlorotUniform", "config": {"seed": null}}, "bias_initializer": {"class_name": "Zeros", "config": {}}, "kernel_regularizer": null, "bias_regularizer": null, "activity_regularizer": null, "kernel_constraint": null, "bias_constraint": null}, "name": "dense_359", "inbound_nodes": [[["tf.__operators__.getitem_359", 0, 0, {}]]]}, {"class_name": "Dense", "config": {"name": "dense_360", "trainable": true, "dtype": "float32", "units": 1, "activation": "relu", "use_bias": true, "kernel_initializer": {"class_name": "GlorotUniform", "config": {"seed": null}}, "bias_initializer": {"class_name": "Zeros", "config": {}}, "kernel_regularizer": null, "bias_regularizer": null, "activity_regularizer": null, "kernel_constraint": null, "bias_constraint": null}, "name": "dense_360", "inbound_nodes": [[["tf.__operators__.getitem_360", 0, 0, {}]]]}, {"class_name": "Dense", "config": {"name": "dense_361", "trainable": true, "dtype": "float32", "units": 1, "activation": "relu", "use_bias": true, "kernel_initializer": {"class_name": "GlorotUniform", "config": {"seed": null}}, "bias_initializer": {"class_name": "Zeros", "config": {}}, "kernel_regularizer": null, "bias_regularizer": null, "activity_regularizer": null, "kernel_constraint": null, "bias_constraint": null}, "name": "dense_361", "inbound_nodes": [[["tf.__operators__.getitem_361", 0, 0, {}]]]}, {"class_name": "Dense", "config": {"name": "dense_362", "trainable": true, "dtype": "float32", "units": 1, "activation": "relu", "use_bias": true, "kernel_initializer": {"class_name": "GlorotUniform", "config": {"seed": null}}, "bias_initializer": {"class_name": "Zeros", "config": {}}, "kernel_regularizer": null, "bias_regularizer": null, "activity_regularizer": null, "kernel_constraint": null, "bias_constraint": null}, "name": "dense_362", "inbound_nodes": [[["tf.__operators__.getitem_362", 0, 0, {}]]]}, {"class_name": "Dense", "config": {"name": "dense_363", "trainable": true, "dtype": "float32", "units": 1, "activation": "relu", "use_bias": true, "kernel_initializer": {"class_name": "GlorotUniform", "config": {"seed": null}}, "bias_initializer": {"class_name": "Zeros", "config": {}}, "kernel_regularizer": null, "bias_regularizer": null, "activity_regularizer": null, "kernel_constraint": null, "bias_constraint": null}, "name": "dense_363", "inbound_nodes": [[["tf.__operators__.getitem_363", 0, 0, {}]]]}, {"class_name": "Dense", "config": {"name": "dense_364", "trainable": true, "dtype": "float32", "units": 1, "activation": "relu", "use_bias": true, "kernel_initializer": {"class_name": "GlorotUniform", "config": {"seed": null}}, "bias_initializer": {"class_name": "Zeros", "config": {}}, "kernel_regularizer": null, "bias_regularizer": null, "activity_regularizer": null, "kernel_constraint": null, "bias_constraint": null}, "name": "dense_364", "inbound_nodes": [[["tf.__operators__.getitem_364", 0, 0, {}]]]}, {"class_name": "Dense", "config": {"name": "dense_365", "trainable": true, "dtype": "float32", "units": 1, "activation": "relu", "use_bias": true, "kernel_initializer": {"class_name": "GlorotUniform", "config": {"seed": null}}, "bias_initializer": {"class_name": "Zeros", "config": {}}, "kernel_regularizer": null, "bias_regularizer": null, "activity_regularizer": null, "kernel_constraint": null, "bias_constraint": null}, "name": "dense_365", "inbound_nodes": [[["tf.__operators__.getitem_365", 0, 0, {}]]]}, {"class_name": "Dense", "config": {"name": "dense_366", "trainable": true, "dtype": "float32", "units": 1, "activation": "relu", "use_bias": true, "kernel_initializer": {"class_name": "GlorotUniform", "config": {"seed": null}}, "bias_initializer": {"class_name": "Zeros", "config": {}}, "kernel_regularizer": null, "bias_regularizer": null, "activity_regularizer": null, "kernel_constraint": null, "bias_constraint": null}, "name": "dense_366", "inbound_nodes": [[["tf.__operators__.getitem_366", 0, 0, {}]]]}, {"class_name": "Dense", "config": {"name": "dense_367", "trainable": true, "dtype": "float32", "units": 1, "activation": "relu", "use_bias": true, "kernel_initializer": {"class_name": "GlorotUniform", "config": {"seed": null}}, "bias_initializer": {"class_name": "Zeros", "config": {}}, "kernel_regularizer": null, "bias_regularizer": null, "activity_regularizer": null, "kernel_constraint": null, "bias_constraint": null}, "name": "dense_367", "inbound_nodes": [[["tf.__operators__.getitem_367", 0, 0, {}]]]}, {"class_name": "Dense", "config": {"name": "dense_368", "trainable": true, "dtype": "float32", "units": 1, "activation": "relu", "use_bias": true, "kernel_initializer": {"class_name": "GlorotUniform", "config": {"seed": null}}, "bias_initializer": {"class_name": "Zeros", "config": {}}, "kernel_regularizer": null, "bias_regularizer": null, "activity_regularizer": null, "kernel_constraint": null, "bias_constraint": null}, "name": "dense_368", "inbound_nodes": [[["tf.__operators__.getitem_368", 0, 0, {}]]]}, {"class_name": "Dense", "config": {"name": "dense_369", "trainable": true, "dtype": "float32", "units": 1, "activation": "relu", "use_bias": true, "kernel_initializer": {"class_name": "GlorotUniform", "config": {"seed": null}}, "bias_initializer": {"class_name": "Zeros", "config": {}}, "kernel_regularizer": null, "bias_regularizer": null, "activity_regularizer": null, "kernel_constraint": null, "bias_constraint": null}, "name": "dense_369", "inbound_nodes": [[["tf.__operators__.getitem_369", 0, 0, {}]]]}, {"class_name": "Dense", "config": {"name": "dense_370", "trainable": true, "dtype": "float32", "units": 1, "activation": "relu", "use_bias": true, "kernel_initializer": {"class_name": "GlorotUniform", "config": {"seed": null}}, "bias_initializer": {"class_name": "Zeros", "config": {}}, "kernel_regularizer": null, "bias_regularizer": null, "activity_regularizer": null, "kernel_constraint": null, "bias_constraint": null}, "name": "dense_370", "inbound_nodes": [[["tf.__operators__.getitem_370", 0, 0, {}]]]}, {"class_name": "Dense", "config": {"name": "dense_371", "trainable": true, "dtype": "float32", "units": 1, "activation": "relu", "use_bias": true, "kernel_initializer": {"class_name": "GlorotUniform", "config": {"seed": null}}, "bias_initializer": {"class_name": "Zeros", "config": {}}, "kernel_regularizer": null, "bias_regularizer": null, "activity_regularizer": null, "kernel_constraint": null, "bias_constraint": null}, "name": "dense_371", "inbound_nodes": [[["tf.__operators__.getitem_371", 0, 0, {}]]]}, {"class_name": "Dense", "config": {"name": "dense_372", "trainable": true, "dtype": "float32", "units": 1, "activation": "relu", "use_bias": true, "kernel_initializer": {"class_name": "GlorotUniform", "config": {"seed": null}}, "bias_initializer": {"class_name": "Zeros", "config": {}}, "kernel_regularizer": null, "bias_regularizer": null, "activity_regularizer": null, "kernel_constraint": null, "bias_constraint": null}, "name": "dense_372", "inbound_nodes": [[["tf.__operators__.getitem_372", 0, 0, {}]]]}, {"class_name": "Dense", "config": {"name": "dense_373", "trainable": true, "dtype": "float32", "units": 1, "activation": "relu", "use_bias": true, "kernel_initializer": {"class_name": "GlorotUniform", "config": {"seed": null}}, "bias_initializer": {"class_name": "Zeros", "config": {}}, "kernel_regularizer": null, "bias_regularizer": null, "activity_regularizer": null, "kernel_constraint": null, "bias_constraint": null}, "name": "dense_373", "inbound_nodes": [[["tf.__operators__.getitem_373", 0, 0, {}]]]}, {"class_name": "Dense", "config": {"name": "dense_374", "trainable": true, "dtype": "float32", "units": 1, "activation": "relu", "use_bias": true, "kernel_initializer": {"class_name": "GlorotUniform", "config": {"seed": null}}, "bias_initializer": {"class_name": "Zeros", "config": {}}, "kernel_regularizer": null, "bias_regularizer": null, "activity_regularizer": null, "kernel_constraint": null, "bias_constraint": null}, "name": "dense_374", "inbound_nodes": [[["tf.__operators__.getitem_374", 0, 0, {}]]]}, {"class_name": "Dense", "config": {"name": "dense_375", "trainable": true, "dtype": "float32", "units": 1, "activation": "relu", "use_bias": true, "kernel_initializer": {"class_name": "GlorotUniform", "config": {"seed": null}}, "bias_initializer": {"class_name": "Zeros", "config": {}}, "kernel_regularizer": null, "bias_regularizer": null, "activity_regularizer": null, "kernel_constraint": null, "bias_constraint": null}, "name": "dense_375", "inbound_nodes": [[["tf.__operators__.getitem_375", 0, 0, {}]]]}, {"class_name": "Dense", "config": {"name": "dense_376", "trainable": true, "dtype": "float32", "units": 1, "activation": "relu", "use_bias": true, "kernel_initializer": {"class_name": "GlorotUniform", "config": {"seed": null}}, "bias_initializer": {"class_name": "Zeros", "config": {}}, "kernel_regularizer": null, "bias_regularizer": null, "activity_regularizer": null, "kernel_constraint": null, "bias_constraint": null}, "name": "dense_376", "inbound_nodes": [[["tf.__operators__.getitem_376", 0, 0, {}]]]}, {"class_name": "Dense", "config": {"name": "dense_377", "trainable": true, "dtype": "float32", "units": 1, "activation": "relu", "use_bias": true, "kernel_initializer": {"class_name": "GlorotUniform", "config": {"seed": null}}, "bias_initializer": {"class_name": "Zeros", "config": {}}, "kernel_regularizer": null, "bias_regularizer": null, "activity_regularizer": null, "kernel_constraint": null, "bias_constraint": null}, "name": "dense_377", "inbound_nodes": [[["tf.__operators__.getitem_377", 0, 0, {}]]]}, {"class_name": "Dense", "config": {"name": "dense_378", "trainable": true, "dtype": "float32", "units": 1, "activation": "relu", "use_bias": true, "kernel_initializer": {"class_name": "GlorotUniform", "config": {"seed": null}}, "bias_initializer": {"class_name": "Zeros", "config": {}}, "kernel_regularizer": null, "bias_regularizer": null, "activity_regularizer": null, "kernel_constraint": null, "bias_constraint": null}, "name": "dense_378", "inbound_nodes": [[["tf.__operators__.getitem_378", 0, 0, {}]]]}, {"class_name": "Dense", "config": {"name": "dense_379", "trainable": true, "dtype": "float32", "units": 1, "activation": "relu", "use_bias": true, "kernel_initializer": {"class_name": "GlorotUniform", "config": {"seed": null}}, "bias_initializer": {"class_name": "Zeros", "config": {}}, "kernel_regularizer": null, "bias_regularizer": null, "activity_regularizer": null, "kernel_constraint": null, "bias_constraint": null}, "name": "dense_379", "inbound_nodes": [[["tf.__operators__.getitem_379", 0, 0, {}]]]}, {"class_name": "Dense", "config": {"name": "dense_380", "trainable": true, "dtype": "float32", "units": 1, "activation": "relu", "use_bias": true, "kernel_initializer": {"class_name": "GlorotUniform", "config": {"seed": null}}, "bias_initializer": {"class_name": "Zeros", "config": {}}, "kernel_regularizer": null, "bias_regularizer": null, "activity_regularizer": null, "kernel_constraint": null, "bias_constraint": null}, "name": "dense_380", "inbound_nodes": [[["tf.__operators__.getitem_380", 0, 0, {}]]]}, {"class_name": "Dense", "config": {"name": "dense_381", "trainable": true, "dtype": "float32", "units": 1, "activation": "relu", "use_bias": true, "kernel_initializer": {"class_name": "GlorotUniform", "config": {"seed": null}}, "bias_initializer": {"class_name": "Zeros", "config": {}}, "kernel_regularizer": null, "bias_regularizer": null, "activity_regularizer": null, "kernel_constraint": null, "bias_constraint": null}, "name": "dense_381", "inbound_nodes": [[["tf.__operators__.getitem_381", 0, 0, {}]]]}, {"class_name": "Dense", "config": {"name": "dense_382", "trainable": true, "dtype": "float32", "units": 1, "activation": "relu", "use_bias": true, "kernel_initializer": {"class_name": "GlorotUniform", "config": {"seed": null}}, "bias_initializer": {"class_name": "Zeros", "config": {}}, "kernel_regularizer": null, "bias_regularizer": null, "activity_regularizer": null, "kernel_constraint": null, "bias_constraint": null}, "name": "dense_382", "inbound_nodes": [[["tf.__operators__.getitem_382", 0, 0, {}]]]}, {"class_name": "Dense", "config": {"name": "dense_383", "trainable": true, "dtype": "float32", "units": 1, "activation": "relu", "use_bias": true, "kernel_initializer": {"class_name": "GlorotUniform", "config": {"seed": null}}, "bias_initializer": {"class_name": "Zeros", "config": {}}, "kernel_regularizer": null, "bias_regularizer": null, "activity_regularizer": null, "kernel_constraint": null, "bias_constraint": null}, "name": "dense_383", "inbound_nodes": [[["tf.__operators__.getitem_383", 0, 0, {}]]]}, {"class_name": "Dense", "config": {"name": "dense_384", "trainable": true, "dtype": "float32", "units": 1, "activation": "relu", "use_bias": true, "kernel_initializer": {"class_name": "GlorotUniform", "config": {"seed": null}}, "bias_initializer": {"class_name": "Zeros", "config": {}}, "kernel_regularizer": null, "bias_regularizer": null, "activity_regularizer": null, "kernel_constraint": null, "bias_constraint": null}, "name": "dense_384", "inbound_nodes": [[["tf.__operators__.getitem_384", 0, 0, {}]]]}, {"class_name": "Dense", "config": {"name": "dense_385", "trainable": true, "dtype": "float32", "units": 1, "activation": "relu", "use_bias": true, "kernel_initializer": {"class_name": "GlorotUniform", "config": {"seed": null}}, "bias_initializer": {"class_name": "Zeros", "config": {}}, "kernel_regularizer": null, "bias_regularizer": null, "activity_regularizer": null, "kernel_constraint": null, "bias_constraint": null}, "name": "dense_385", "inbound_nodes": [[["tf.__operators__.getitem_385", 0, 0, {}]]]}, {"class_name": "Dense", "config": {"name": "dense_386", "trainable": true, "dtype": "float32", "units": 1, "activation": "relu", "use_bias": true, "kernel_initializer": {"class_name": "GlorotUniform", "config": {"seed": null}}, "bias_initializer": {"class_name": "Zeros", "config": {}}, "kernel_regularizer": null, "bias_regularizer": null, "activity_regularizer": null, "kernel_constraint": null, "bias_constraint": null}, "name": "dense_386", "inbound_nodes": [[["tf.__operators__.getitem_386", 0, 0, {}]]]}, {"class_name": "Dense", "config": {"name": "dense_387", "trainable": true, "dtype": "float32", "units": 1, "activation": "relu", "use_bias": true, "kernel_initializer": {"class_name": "GlorotUniform", "config": {"seed": null}}, "bias_initializer": {"class_name": "Zeros", "config": {}}, "kernel_regularizer": null, "bias_regularizer": null, "activity_regularizer": null, "kernel_constraint": null, "bias_constraint": null}, "name": "dense_387", "inbound_nodes": [[["tf.__operators__.getitem_387", 0, 0, {}]]]}, {"class_name": "Dense", "config": {"name": "dense_388", "trainable": true, "dtype": "float32", "units": 1, "activation": "relu", "use_bias": true, "kernel_initializer": {"class_name": "GlorotUniform", "config": {"seed": null}}, "bias_initializer": {"class_name": "Zeros", "config": {}}, "kernel_regularizer": null, "bias_regularizer": null, "activity_regularizer": null, "kernel_constraint": null, "bias_constraint": null}, "name": "dense_388", "inbound_nodes": [[["tf.__operators__.getitem_388", 0, 0, {}]]]}, {"class_name": "Dense", "config": {"name": "dense_389", "trainable": true, "dtype": "float32", "units": 1, "activation": "relu", "use_bias": true, "kernel_initializer": {"class_name": "GlorotUniform", "config": {"seed": null}}, "bias_initializer": {"class_name": "Zeros", "config": {}}, "kernel_regularizer": null, "bias_regularizer": null, "activity_regularizer": null, "kernel_constraint": null, "bias_constraint": null}, "name": "dense_389", "inbound_nodes": [[["tf.__operators__.getitem_389", 0, 0, {}]]]}, {"class_name": "Dense", "config": {"name": "dense_390", "trainable": true, "dtype": "float32", "units": 1, "activation": "relu", "use_bias": true, "kernel_initializer": {"class_name": "GlorotUniform", "config": {"seed": null}}, "bias_initializer": {"class_name": "Zeros", "config": {}}, "kernel_regularizer": null, "bias_regularizer": null, "activity_regularizer": null, "kernel_constraint": null, "bias_constraint": null}, "name": "dense_390", "inbound_nodes": [[["tf.__operators__.getitem_390", 0, 0, {}]]]}, {"class_name": "Dense", "config": {"name": "dense_391", "trainable": true, "dtype": "float32", "units": 1, "activation": "relu", "use_bias": true, "kernel_initializer": {"class_name": "GlorotUniform", "config": {"seed": null}}, "bias_initializer": {"class_name": "Zeros", "config": {}}, "kernel_regularizer": null, "bias_regularizer": null, "activity_regularizer": null, "kernel_constraint": null, "bias_constraint": null}, "name": "dense_391", "inbound_nodes": [[["tf.__operators__.getitem_391", 0, 0, {}]]]}, {"class_name": "Dense", "config": {"name": "dense_392", "trainable": true, "dtype": "float32", "units": 1, "activation": "relu", "use_bias": true, "kernel_initializer": {"class_name": "GlorotUniform", "config": {"seed": null}}, "bias_initializer": {"class_name": "Zeros", "config": {}}, "kernel_regularizer": null, "bias_regularizer": null, "activity_regularizer": null, "kernel_constraint": null, "bias_constraint": null}, "name": "dense_392", "inbound_nodes": [[["tf.__operators__.getitem_392", 0, 0, {}]]]}, {"class_name": "Dense", "config": {"name": "dense_393", "trainable": true, "dtype": "float32", "units": 1, "activation": "relu", "use_bias": true, "kernel_initializer": {"class_name": "GlorotUniform", "config": {"seed": null}}, "bias_initializer": {"class_name": "Zeros", "config": {}}, "kernel_regularizer": null, "bias_regularizer": null, "activity_regularizer": null, "kernel_constraint": null, "bias_constraint": null}, "name": "dense_393", "inbound_nodes": [[["tf.__operators__.getitem_393", 0, 0, {}]]]}, {"class_name": "Dense", "config": {"name": "dense_394", "trainable": true, "dtype": "float32", "units": 1, "activation": "relu", "use_bias": true, "kernel_initializer": {"class_name": "GlorotUniform", "config": {"seed": null}}, "bias_initializer": {"class_name": "Zeros", "config": {}}, "kernel_regularizer": null, "bias_regularizer": null, "activity_regularizer": null, "kernel_constraint": null, "bias_constraint": null}, "name": "dense_394", "inbound_nodes": [[["tf.__operators__.getitem_394", 0, 0, {}]]]}, {"class_name": "Dense", "config": {"name": "dense_395", "trainable": true, "dtype": "float32", "units": 1, "activation": "relu", "use_bias": true, "kernel_initializer": {"class_name": "GlorotUniform", "config": {"seed": null}}, "bias_initializer": {"class_name": "Zeros", "config": {}}, "kernel_regularizer": null, "bias_regularizer": null, "activity_regularizer": null, "kernel_constraint": null, "bias_constraint": null}, "name": "dense_395", "inbound_nodes": [[["tf.__operators__.getitem_395", 0, 0, {}]]]}, {"class_name": "Dense", "config": {"name": "dense_396", "trainable": true, "dtype": "float32", "units": 1, "activation": "relu", "use_bias": true, "kernel_initializer": {"class_name": "GlorotUniform", "config": {"seed": null}}, "bias_initializer": {"class_name": "Zeros", "config": {}}, "kernel_regularizer": null, "bias_regularizer": null, "activity_regularizer": null, "kernel_constraint": null, "bias_constraint": null}, "name": "dense_396", "inbound_nodes": [[["tf.__operators__.getitem_396", 0, 0, {}]]]}, {"class_name": "Dense", "config": {"name": "dense_397", "trainable": true, "dtype": "float32", "units": 1, "activation": "relu", "use_bias": true, "kernel_initializer": {"class_name": "GlorotUniform", "config": {"seed": null}}, "bias_initializer": {"class_name": "Zeros", "config": {}}, "kernel_regularizer": null, "bias_regularizer": null, "activity_regularizer": null, "kernel_constraint": null, "bias_constraint": null}, "name": "dense_397", "inbound_nodes": [[["tf.__operators__.getitem_397", 0, 0, {}]]]}, {"class_name": "Dense", "config": {"name": "dense_398", "trainable": true, "dtype": "float32", "units": 1, "activation": "relu", "use_bias": true, "kernel_initializer": {"class_name": "GlorotUniform", "config": {"seed": null}}, "bias_initializer": {"class_name": "Zeros", "config": {}}, "kernel_regularizer": null, "bias_regularizer": null, "activity_regularizer": null, "kernel_constraint": null, "bias_constraint": null}, "name": "dense_398", "inbound_nodes": [[["tf.__operators__.getitem_398", 0, 0, {}]]]}, {"class_name": "Dense", "config": {"name": "dense_399", "trainable": true, "dtype": "float32", "units": 1, "activation": "relu", "use_bias": true, "kernel_initializer": {"class_name": "GlorotUniform", "config": {"seed": null}}, "bias_initializer": {"class_name": "Zeros", "config": {}}, "kernel_regularizer": null, "bias_regularizer": null, "activity_regularizer": null, "kernel_constraint": null, "bias_constraint": null}, "name": "dense_399", "inbound_nodes": [[["tf.__operators__.getitem_399", 0, 0, {}]]]}, {"class_name": "Dense", "config": {"name": "dense_400", "trainable": true, "dtype": "float32", "units": 1, "activation": "relu", "use_bias": true, "kernel_initializer": {"class_name": "GlorotUniform", "config": {"seed": null}}, "bias_initializer": {"class_name": "Zeros", "config": {}}, "kernel_regularizer": null, "bias_regularizer": null, "activity_regularizer": null, "kernel_constraint": null, "bias_constraint": null}, "name": "dense_400", "inbound_nodes": [[["tf.__operators__.getitem_400", 0, 0, {}]]]}, {"class_name": "Dense", "config": {"name": "dense_401", "trainable": true, "dtype": "float32", "units": 1, "activation": "relu", "use_bias": true, "kernel_initializer": {"class_name": "GlorotUniform", "config": {"seed": null}}, "bias_initializer": {"class_name": "Zeros", "config": {}}, "kernel_regularizer": null, "bias_regularizer": null, "activity_regularizer": null, "kernel_constraint": null, "bias_constraint": null}, "name": "dense_401", "inbound_nodes": [[["tf.__operators__.getitem_401", 0, 0, {}]]]}, {"class_name": "Dense", "config": {"name": "dense_402", "trainable": true, "dtype": "float32", "units": 1, "activation": "relu", "use_bias": true, "kernel_initializer": {"class_name": "GlorotUniform", "config": {"seed": null}}, "bias_initializer": {"class_name": "Zeros", "config": {}}, "kernel_regularizer": null, "bias_regularizer": null, "activity_regularizer": null, "kernel_constraint": null, "bias_constraint": null}, "name": "dense_402", "inbound_nodes": [[["tf.__operators__.getitem_402", 0, 0, {}]]]}, {"class_name": "Dense", "config": {"name": "dense_403", "trainable": true, "dtype": "float32", "units": 1, "activation": "relu", "use_bias": true, "kernel_initializer": {"class_name": "GlorotUniform", "config": {"seed": null}}, "bias_initializer": {"class_name": "Zeros", "config": {}}, "kernel_regularizer": null, "bias_regularizer": null, "activity_regularizer": null, "kernel_constraint": null, "bias_constraint": null}, "name": "dense_403", "inbound_nodes": [[["tf.__operators__.getitem_403", 0, 0, {}]]]}, {"class_name": "Dense", "config": {"name": "dense_404", "trainable": true, "dtype": "float32", "units": 1, "activation": "relu", "use_bias": true, "kernel_initializer": {"class_name": "GlorotUniform", "config": {"seed": null}}, "bias_initializer": {"class_name": "Zeros", "config": {}}, "kernel_regularizer": null, "bias_regularizer": null, "activity_regularizer": null, "kernel_constraint": null, "bias_constraint": null}, "name": "dense_404", "inbound_nodes": [[["tf.__operators__.getitem_404", 0, 0, {}]]]}, {"class_name": "Dense", "config": {"name": "dense_405", "trainable": true, "dtype": "float32", "units": 1, "activation": "relu", "use_bias": true, "kernel_initializer": {"class_name": "GlorotUniform", "config": {"seed": null}}, "bias_initializer": {"class_name": "Zeros", "config": {}}, "kernel_regularizer": null, "bias_regularizer": null, "activity_regularizer": null, "kernel_constraint": null, "bias_constraint": null}, "name": "dense_405", "inbound_nodes": [[["tf.__operators__.getitem_405", 0, 0, {}]]]}, {"class_name": "Dense", "config": {"name": "dense_406", "trainable": true, "dtype": "float32", "units": 1, "activation": "relu", "use_bias": true, "kernel_initializer": {"class_name": "GlorotUniform", "config": {"seed": null}}, "bias_initializer": {"class_name": "Zeros", "config": {}}, "kernel_regularizer": null, "bias_regularizer": null, "activity_regularizer": null, "kernel_constraint": null, "bias_constraint": null}, "name": "dense_406", "inbound_nodes": [[["tf.__operators__.getitem_406", 0, 0, {}]]]}, {"class_name": "Dense", "config": {"name": "dense_407", "trainable": true, "dtype": "float32", "units": 1, "activation": "relu", "use_bias": true, "kernel_initializer": {"class_name": "GlorotUniform", "config": {"seed": null}}, "bias_initializer": {"class_name": "Zeros", "config": {}}, "kernel_regularizer": null, "bias_regularizer": null, "activity_regularizer": null, "kernel_constraint": null, "bias_constraint": null}, "name": "dense_407", "inbound_nodes": [[["tf.__operators__.getitem_407", 0, 0, {}]]]}, {"class_name": "Dense", "config": {"name": "dense_408", "trainable": true, "dtype": "float32", "units": 1, "activation": "relu", "use_bias": true, "kernel_initializer": {"class_name": "GlorotUniform", "config": {"seed": null}}, "bias_initializer": {"class_name": "Zeros", "config": {}}, "kernel_regularizer": null, "bias_regularizer": null, "activity_regularizer": null, "kernel_constraint": null, "bias_constraint": null}, "name": "dense_408", "inbound_nodes": [[["tf.__operators__.getitem_408", 0, 0, {}]]]}, {"class_name": "Dense", "config": {"name": "dense_409", "trainable": true, "dtype": "float32", "units": 1, "activation": "relu", "use_bias": true, "kernel_initializer": {"class_name": "GlorotUniform", "config": {"seed": null}}, "bias_initializer": {"class_name": "Zeros", "config": {}}, "kernel_regularizer": null, "bias_regularizer": null, "activity_regularizer": null, "kernel_constraint": null, "bias_constraint": null}, "name": "dense_409", "inbound_nodes": [[["tf.__operators__.getitem_409", 0, 0, {}]]]}, {"class_name": "Dense", "config": {"name": "dense_410", "trainable": true, "dtype": "float32", "units": 1, "activation": "relu", "use_bias": true, "kernel_initializer": {"class_name": "GlorotUniform", "config": {"seed": null}}, "bias_initializer": {"class_name": "Zeros", "config": {}}, "kernel_regularizer": null, "bias_regularizer": null, "activity_regularizer": null, "kernel_constraint": null, "bias_constraint": null}, "name": "dense_410", "inbound_nodes": [[["tf.__operators__.getitem_410", 0, 0, {}]]]}, {"class_name": "Dense", "config": {"name": "dense_411", "trainable": true, "dtype": "float32", "units": 1, "activation": "relu", "use_bias": true, "kernel_initializer": {"class_name": "GlorotUniform", "config": {"seed": null}}, "bias_initializer": {"class_name": "Zeros", "config": {}}, "kernel_regularizer": null, "bias_regularizer": null, "activity_regularizer": null, "kernel_constraint": null, "bias_constraint": null}, "name": "dense_411", "inbound_nodes": [[["tf.__operators__.getitem_411", 0, 0, {}]]]}, {"class_name": "Concatenate", "config": {"name": "output_layer", "trainable": true, "dtype": "float32", "axis": -1}, "name": "output_layer", "inbound_nodes": [[["dense_160", 0, 0, {}], ["dense_161", 0, 0, {}], ["dense_162", 0, 0, {}], ["dense_163", 0, 0, {}], ["dense_164", 0, 0, {}], ["dense_165", 0, 0, {}], ["dense_166", 0, 0, {}], ["dense_167", 0, 0, {}], ["dense_168", 0, 0, {}], ["dense_169", 0, 0, {}], ["dense_170", 0, 0, {}], ["dense_171", 0, 0, {}], ["dense_172", 0, 0, {}], ["dense_173", 0, 0, {}], ["dense_174", 0, 0, {}], ["dense_175", 0, 0, {}], ["dense_176", 0, 0, {}], ["dense_177", 0, 0, {}], ["dense_178", 0, 0, {}], ["dense_179", 0, 0, {}], ["dense_180", 0, 0, {}], ["dense_181", 0, 0, {}], ["dense_182", 0, 0, {}], ["dense_183", 0, 0, {}], ["dense_184", 0, 0, {}], ["dense_185", 0, 0, {}], ["dense_186", 0, 0, {}], ["dense_187", 0, 0, {}], ["dense_188", 0, 0, {}], ["dense_189", 0, 0, {}], ["dense_190", 0, 0, {}], ["dense_191", 0, 0, {}], ["dense_192", 0, 0, {}], ["dense_193", 0, 0, {}], ["dense_194", 0, 0, {}], ["dense_195", 0, 0, {}], ["dense_196", 0, 0, {}], ["dense_197", 0, 0, {}], ["dense_198", 0, 0, {}], ["dense_199", 0, 0, {}], ["dense_200", 0, 0, {}], ["dense_201", 0, 0, {}], ["dense_202", 0, 0, {}], ["dense_203", 0, 0, {}], ["dense_204", 0, 0, {}], ["dense_205", 0, 0, {}], ["dense_206", 0, 0, {}], ["dense_207", 0, 0, {}], ["dense_208", 0, 0, {}], ["dense_209", 0, 0, {}], ["dense_210", 0, 0, {}], ["dense_211", 0, 0, {}], ["dense_212", 0, 0, {}], ["dense_213", 0, 0, {}], ["dense_214", 0, 0, {}], ["dense_215", 0, 0, {}], ["dense_216", 0, 0, {}], ["dense_217", 0, 0, {}], ["dense_218", 0, 0, {}], ["dense_219", 0, 0, {}], ["dense_220", 0, 0, {}], ["dense_221", 0, 0, {}], ["dense_222", 0, 0, {}], ["dense_223", 0, 0, {}], ["dense_224", 0, 0, {}], ["dense_225", 0, 0, {}], ["dense_226", 0, 0, {}], ["dense_227", 0, 0, {}], ["dense_228", 0, 0, {}], ["dense_229", 0, 0, {}], ["dense_230", 0, 0, {}], ["dense_231", 0, 0, {}], ["dense_232", 0, 0, {}], ["dense_233", 0, 0, {}], ["dense_234", 0, 0, {}], ["dense_235", 0, 0, {}], ["dense_236", 0, 0, {}], ["dense_237", 0, 0, {}], ["dense_238", 0, 0, {}], ["dense_239", 0, 0, {}], ["dense_240", 0, 0, {}], ["dense_241", 0, 0, {}], ["dense_242", 0, 0, {}], ["dense_243", 0, 0, {}], ["dense_244", 0, 0, {}], ["dense_245", 0, 0, {}], ["dense_246", 0, 0, {}], ["dense_247", 0, 0, {}], ["dense_248", 0, 0, {}], ["dense_249", 0, 0, {}], ["dense_250", 0, 0, {}], ["dense_251", 0, 0, {}], ["dense_252", 0, 0, {}], ["dense_253", 0, 0, {}], ["dense_254", 0, 0, {}], ["dense_255", 0, 0, {}], ["dense_256", 0, 0, {}], ["dense_257", 0, 0, {}], ["dense_258", 0, 0, {}], ["dense_259", 0, 0, {}], ["dense_260", 0, 0, {}], ["dense_261", 0, 0, {}], ["dense_262", 0, 0, {}], ["dense_263", 0, 0, {}], ["dense_264", 0, 0, {}], ["dense_265", 0, 0, {}], ["dense_266", 0, 0, {}], ["dense_267", 0, 0, {}], ["dense_268", 0, 0, {}], ["dense_269", 0, 0, {}], ["dense_270", 0, 0, {}], ["dense_271", 0, 0, {}], ["dense_272", 0, 0, {}], ["dense_273", 0, 0, {}], ["dense_274", 0, 0, {}], ["dense_275", 0, 0, {}], ["dense_276", 0, 0, {}], ["dense_277", 0, 0, {}], ["dense_278", 0, 0, {}], ["dense_279", 0, 0, {}], ["dense_280", 0, 0, {}], ["dense_281", 0, 0, {}], ["dense_282", 0, 0, {}], ["dense_283", 0, 0, {}], ["dense_284", 0, 0, {}], ["dense_285", 0, 0, {}], ["dense_286", 0, 0, {}], ["dense_287", 0, 0, {}], ["dense_288", 0, 0, {}], ["dense_289", 0, 0, {}], ["dense_290", 0, 0, {}], ["dense_291", 0, 0, {}], ["dense_292", 0, 0, {}], ["dense_293", 0, 0, {}], ["dense_294", 0, 0, {}], ["dense_295", 0, 0, {}], ["dense_296", 0, 0, {}], ["dense_297", 0, 0, {}], ["dense_298", 0, 0, {}], ["dense_299", 0, 0, {}], ["dense_300", 0, 0, {}], ["dense_301", 0, 0, {}], ["dense_302", 0, 0, {}], ["dense_303", 0, 0, {}], ["dense_304", 0, 0, {}], ["dense_305", 0, 0, {}], ["dense_306", 0, 0, {}], ["dense_307", 0, 0, {}], ["dense_308", 0, 0, {}], ["dense_309", 0, 0, {}], ["dense_310", 0, 0, {}], ["dense_311", 0, 0, {}], ["dense_312", 0, 0, {}], ["dense_313", 0, 0, {}], ["dense_314", 0, 0, {}], ["dense_315", 0, 0, {}], ["dense_316", 0, 0, {}], ["dense_317", 0, 0, {}], ["dense_318", 0, 0, {}], ["dense_319", 0, 0, {}], ["dense_320", 0, 0, {}], ["dense_321", 0, 0, {}], ["dense_322", 0, 0, {}], ["dense_323", 0, 0, {}], ["dense_324", 0, 0, {}], ["dense_325", 0, 0, {}], ["dense_326", 0, 0, {}], ["dense_327", 0, 0, {}], ["dense_328", 0, 0, {}], ["dense_329", 0, 0, {}], ["dense_330", 0, 0, {}], ["dense_331", 0, 0, {}], ["dense_332", 0, 0, {}], ["dense_333", 0, 0, {}], ["dense_334", 0, 0, {}], ["dense_335", 0, 0, {}], ["dense_336", 0, 0, {}], ["dense_337", 0, 0, {}], ["dense_338", 0, 0, {}], ["dense_339", 0, 0, {}], ["dense_340", 0, 0, {}], ["dense_341", 0, 0, {}], ["dense_342", 0, 0, {}], ["dense_343", 0, 0, {}], ["dense_344", 0, 0, {}], ["dense_345", 0, 0, {}], ["dense_346", 0, 0, {}], ["dense_347", 0, 0, {}], ["dense_348", 0, 0, {}], ["dense_349", 0, 0, {}], ["dense_350", 0, 0, {}], ["dense_351", 0, 0, {}], ["dense_352", 0, 0, {}], ["dense_353", 0, 0, {}], ["dense_354", 0, 0, {}], ["dense_355", 0, 0, {}], ["dense_356", 0, 0, {}], ["dense_357", 0, 0, {}], ["dense_358", 0, 0, {}], ["dense_359", 0, 0, {}], ["dense_360", 0, 0, {}], ["dense_361", 0, 0, {}], ["dense_362", 0, 0, {}], ["dense_363", 0, 0, {}], ["dense_364", 0, 0, {}], ["dense_365", 0, 0, {}], ["dense_366", 0, 0, {}], ["dense_367", 0, 0, {}], ["dense_368", 0, 0, {}], ["dense_369", 0, 0, {}], ["dense_370", 0, 0, {}], ["dense_371", 0, 0, {}], ["dense_372", 0, 0, {}], ["dense_373", 0, 0, {}], ["dense_374", 0, 0, {}], ["dense_375", 0, 0, {}], ["dense_376", 0, 0, {}], ["dense_377", 0, 0, {}], ["dense_378", 0, 0, {}], ["dense_379", 0, 0, {}], ["dense_380", 0, 0, {}], ["dense_381", 0, 0, {}], ["dense_382", 0, 0, {}], ["dense_383", 0, 0, {}], ["dense_384", 0, 0, {}], ["dense_385", 0, 0, {}], ["dense_386", 0, 0, {}], ["dense_387", 0, 0, {}], ["dense_388", 0, 0, {}], ["dense_389", 0, 0, {}], ["dense_390", 0, 0, {}], ["dense_391", 0, 0, {}], ["dense_392", 0, 0, {}], ["dense_393", 0, 0, {}], ["dense_394", 0, 0, {}], ["dense_395", 0, 0, {}], ["dense_396", 0, 0, {}], ["dense_397", 0, 0, {}], ["dense_398", 0, 0, {}], ["dense_399", 0, 0, {}], ["dense_400", 0, 0, {}], ["dense_401", 0, 0, {}], ["dense_402", 0, 0, {}], ["dense_403", 0, 0, {}], ["dense_404", 0, 0, {}], ["dense_405", 0, 0, {}], ["dense_406", 0, 0, {}], ["dense_407", 0, 0, {}], ["dense_408", 0, 0, {}], ["dense_409", 0, 0, {}], ["dense_410", 0, 0, {}], ["dense_411", 0, 0, {}]]]}], "input_layers": [["input_layer", 0, 0]], "output_layers": [["output_layer", 0, 0]]}, "keras_version": "2.6.0", "backend": "tensorflow"}